src/model/trained/student_trained.pt (torch, 106101 bytes, 15 tensors)

conv.weight f4 [8, 1, 5, 20]
000000 c4 c4 8c bd bc e7 22 3d cd b9 1a bd 8d 87 62 bd
       -0.068734676 0.03977178 -0.03777485 -0.055305053
000010 9d 74 d3 3c d9 7f 95 bc 97 84 d9 3b 25 89 ae 3c
       0.025812441 -0.01824944 0.0066381204 0.02130563
000020 75 e3 56 bd eb 4f a2 3d 62 b6 44 3d 0a ea 18 3d
       -0.052463014 0.079253994 0.048025496 0.037332572
000030 fc 3c 81 bd 64 30 04 ba db f7 8d 3d bc f1 a9 bc
       -0.0631046 -0.0005042611 0.0693204 -0.02074515
000040 59 a0 8b bd 57 d3 48 3d 5b 44 14 bd 8c 88 6f 3d
       -0.06817693 0.049029674 -0.036198 0.05847983
000050 57 04 c9 bb 95 2a 0c be 64 21 1b bd f7 f1 b7 bd
       -0.0061345506 -0.13688119 -0.03787364 -0.08981698
000060 19 a3 4d 3d 3a 7f ed 3c a1 d2 28 3c 01 ee fd bb
       0.05020437 0.02899133 0.010304124 -0.0077493195
000070 9d 35 85 3d ba ba 62 bd 17 f5 8a bd 50 5b 97 3c
       0.065043665 -0.055353858 -0.067850284 0.018476158
000080 03 eb 90 bd c8 bf 2a 3d da b2 c2 3c 4c 8b ce 3d
       -0.07076075 0.041686803 0.023766924 0.100851625
000090 77 7d 5c bb 8a 57 60 3d 0b d5 95 3d 9b 0d 46 3c
       -0.0033644119 0.054770984 0.07316025 0.012088205
0000a0 51 1c a9 bd 2b 1b cb bd e3 9e 7a 3d 43 14 33 3c
       -0.08257354 -0.09917291 0.061186682 0.010930124
0000b0 68 3c 5e 3c 52 a4 95 bb 13 4f b5 bd a4 5e 8a bd
       0.013564207 -0.0045667076 -0.08852973 -0.067563325
0000c0 f7 e3 ad bc f8 63 5a 3d 3f 68 9b 3b 33 bf b8 bd
       -0.021226866 0.053317994 0.0047426517 -0.09020843
0000d0 01 b7 57 3d 92 ec 46 3c b0 1a 7a 3d 31 ea 54 3d
       0.05266476 0.012141364 0.061060607 0.051981155
0000e0 d2 14 22 3d 01 b0 87 3d ae 2b 9c bc 4e 80 5d 3d
       0.039570637 0.06625367 -0.019063797 0.05407744
0000f0 ac a8 f3 bc c2 15 c3 3c 84 0a cd bd 08 32 83 bd
       -0.029743515 0.023814086 -0.10011771 -0.06406027
000100 4c cf 5a 3c 6c a6 5f bd 14 f5 9d bd d0 31 68 bb
       0.0133550875 -0.05460207 -0.077127606 -0.0035430081
000110 c6 94 5a bd 53 cb 5e 3c ef dd a8 3d 31 bd 90 bd
       -0.053364538 0.013598281 0.082454555 -0.070673354
000120 3f 1b 2a 3d 88 5f 48 bd 52 d6 00 bc 18 e3 5a bb
       0.04152989 -0.04891923 -0.007863598 -0.0033399519
000130 a3 76 ee 3d 62 0d 9f 3d 2f 2d bb 3d 1d 1c 96 3d
       0.11643722 0.077662244 0.091394775 0.07329581
000140 06 bf ca bd 28 27 d1 bd 81 29 82 bc 8f 23 56 bd
       -0.09899716 -0.102125466 -0.015888931 -0.052280005
000150 2b 77 13 bc cb d1 6b bd 55 bd aa 3d 5d 2d 96 3d
       -0.00900058 -0.05757312 0.083368935 0.07332871
000160 3b 71 0b bc eb 68 71 3d 16 19 a8 3c e5 e5 94 3d
       -0.008510883 0.05893795 0.020519774 0.072704114
000170 93 5e a9 bc c3 47 22 bd 83 04 a6 bd a5 80 d1 bc
       -0.02067498 -0.03961922 -0.08106329 -0.025574038
000180 9d 92 14 3d be 74 91 3c 53 c3 d3 3d 12 02 2b 3d
       0.036272634 0.017755862 0.103399895 0.04175002
000190 b7 3d 86 3b 3e 81 17 3e f9 a0 bf 3a 41 81 3e bd
       0.0040967125 0.14795396 0.0014620117 -0.046509985
0001a0 92 b1 88 3d 70 36 ff 3a 1c 6e a9 3b 9c d7 95 3d
       0.06674494 0.001947118 0.0051705968 0.07316515
0001b0 5c 8a c6 bd a7 08 bb bd 09 81 76 3d 0d d4 78 bd
       -0.09694359 -0.0913251 0.06018165 -0.060749102
0001c0 21 58 66 bd 68 8b fb 3c 61 ba 87 bb 87 b6 0a bd
       -0.05623639 0.030706123 -0.004142091 -0.033865478
0001d0 d8 ad 4a bd 86 39 7e 3d 85 19 b8 bd 37 1f c2 3c
       -0.049482197 0.062066577 -0.089892425 0.023696525
0001e0 79 23 05 3e f3 f7 20 3d 7e 9d 15 3d 9f 13 a9 3d
       0.13001813 0.039298963 0.03652715 0.082556956
0001f0 5d 35 90 bd 31 5a 8a bd 12 2b 6d bd 03 d3 14 3d
       -0.07041428 -0.06755484 -0.057902403 0.03633405
000200 30 41 ab bd 5f a2 f8 3c 08 d0 b6 3c e4 5d a8 bd
       -0.08362043 0.030350862 0.022315994 -0.08221033
000210 5f 2c d6 ba d0 1b 62 3c d4 a4 01 3d c2 a2 64 bd
       -0.0016340128 0.013800576 0.031651333 -0.05581928
000220 f1 2a 04 bd bd 37 8d 3c da 57 3e 3d 6c 94 47 bc
       -0.032267515 0.017238492 0.0464705 -0.012181383
000230 0f 63 30 3d 0f 5b bf 3d de 48 1b 3d fc 12 26 3d
       0.04306322 0.0934354 0.03791129 0.04054545
000240 7b c1 df 3d 81 b9 19 bd a7 a5 42 3d b8 d7 c1 bd
       0.10925575 -0.037530426 0.04752126 -0.09464973
000250 55 85 5f 3d 89 e9 a0 bc 3e af 01 3d 44 ae 86 bb
       0.054570515 -0.019642608 0.031661265 -0.0041101296
000260 73 4b 04 bc 56 10 9a bc b4 5e 80 bd 65 8d 8a bd
       -0.008074629 -0.018806618 -0.06268063 -0.0676525
000270 49 f7 08 3d 64 67 57 bd dc 41 c2 bd 67 be 1b 3d
       0.033438955 -0.052588835 -0.09485218 0.03802338
000280 63 0a d8 bc 34 62 14 3d 11 8f 69 bc 85 b6 44 3d
       -0.02637214 0.036226466 -0.014255301 0.048025627
000290 80 cc 3e bd d0 65 01 3d 80 87 60 3d aa c3 ec bc
       -0.046581745 0.031591237 0.054816723 -0.028901894
0002a0 20 f2 85 3d 08 ae 21 3c da 65 5a 3d 9d 11 89 bd
       0.06540322 0.009868152 0.05331979 -0.066928126
0002b0 a3 11 ba bc 91 28 fc 3c be 8c f7 bc 34 be f9 bd
       -0.022713488 0.030781062 -0.030218478 -0.121944815
0002c0 ca 89 99 bc b0 12 a1 bb ad ab 1d 3d 3b 50 d4 3c
       -0.01874246 -0.004915558 0.0384938 0.025917163
0002d0 5b ef af 3d 1c 9b cc 3d c0 d3 0f 3c d9 d5 1c 3d
       0.08590575 0.09990522 0.0087785125 0.03828988
0002e0 bc c5 54 3d b9 d8 08 3d ac 84 36 3d e2 8d d3 3c
       0.051946387 0.033409808 0.04456012 0.025824491
0002f0 e7 b9 21 3d 2f 06 a4 3d 90 02 9c bd 06 90 5b 3c
       0.03948393 0.08008992 -0.07617676 0.013401037
000300 85 4f 03 bd 75 8f 8c 3c bd a7 7c bd 5d 9a a7 bd
       -0.032058258 0.01715825 -0.061683405 -0.08183739
000310 1a 01 bc bc 50 8e b0 bd 72 a8 9b 3b aa 38 ce bd
       -0.022949744 -0.08620894 0.004750305 -0.100694016
000320 a6 cf 3a 3d 48 d4 a6 bd 93 07 05 3d a2 8a 80 bd
       0.045608185 -0.08145958 0.032477926 -0.06276442
000330 34 15 47 bd 0c bd b4 3c e9 55 5a bd 76 c0 c8 bc
       -0.048604205 0.0220628 -0.053304587 -0.024505835
000340 d2 dd b2 bd 31 13 c8 3d f4 b4 48 3c 3f 84 a2 bd
       -0.08733715 0.097692855 0.012250174 -0.0793538
000350 29 e1 57 3d 76 fd c5 bb 36 79 47 bd a7 99 61 3d
       0.052704964 -0.006042178 -0.04869958 0.055078175
000360 97 36 68 3d 24 12 00 3e 35 e5 c7 bc 31 b1 14 bd
       0.056692686 0.1250692 -0.024401287 -0.036301795
000370 aa b7 2d bd 9e ff 62 bd ab 85 88 bc 3d eb 54 3b
       -0.042411484 -0.055419557 -0.0166653 0.0032488846
000380 59 62 8a bc a3 cb ec 3c 09 22 b5 bd a8 00 8c 3d
       -0.016892599 0.028905695 -0.08844382 0.06836063
000390 79 bc 30 3d 0b 0e bb bc 83 16 55 bd 1c f7 93 3c
       0.04314849 -0.022833845 -0.052023422 0.018062167
0003a0 35 72 97 bc 7f 08 4b bd cc a7 c5 3b a6 b1 a5 3d
       -0.018487075 -0.04956865 0.006031966 0.080905244
0003b0 a3 33 98 bb 22 1b c4 3a 47 18 75 3c 2b 7b 6c 3d
       -0.0046448275 0.00149617 0.014959401 0.05773465
0003c0 20 9a 91 3c 55 73 c4 3d c8 ff 51 bd 23 a0 8b bd
       0.017773688 0.0959231 -0.051269323 -0.06817653
0003d0 13 cb 91 bd d0 66 81 bd 15 59 cb bb a3 3e b1 bc
       -0.071188115 -0.06318438 -0.0062056878 -0.021636313
0003e0 06 c2 04 3d e6 68 af bd ab be 13 bd ed e7 a9 3d
       0.032411598 -0.0856493 -0.036070507 0.082961895
0003f0 43 dc c9 bc fd 2a 0c 3c 64 de 85 bd c3 06 82 bc
       -0.024641162 0.008555171 -0.06536558 -0.015872365

conv.bias f4 [8]
000000 0f 11 ad bd 93 fd 06 3e 81 d2 31 3e 97 3f 18 bd
       -0.08450519 0.13182668 0.17365457 -0.03717002
000010 c4 cb 9d 3e d7 aa 1c be a6 3f 86 3e 88 af 87 3e
       0.30819523 -0.15299545 0.26220435 0.26501107

gru.weight_ih_l0 f4 [96, 144]
000000 8f 7f ee bd 1c 31 16 3d d4 6a 24 be c9 9a 9f 3d
       -0.116454236 0.036667928 -0.16056377 0.07793195
000010 3d 3e 1e bd 81 4b b2 3d 6a 28 bb 3d d0 bb 03 bb
       -0.038633574 0.087058075 0.09138568 -0.0020100959
000020 6a c0 8e 3c 86 fa 9a 3d cf fd 8d 3d da 14 94 3d
       0.017425735 0.07567315 0.06933176 0.072305396
000030 a0 77 c5 3d f4 83 65 3c 05 ad 4b bd b2 c0 cd bc
       0.09641957 0.014008511 -0.04972555 -0.025116298
000040 8a f5 0b bd 3c 3c f7 3d 80 c8 2f 3d f3 dd 43 bd
       -0.03416971 0.12072036 0.04291582 -0.04781909
000050 eb 0b aa bd 4f ec 96 3c 02 4b be 3d 2d 53 ac 3c
       -0.083030544 0.018423228 0.0929165 0.021035755
000060 24 14 2a 3d 08 cd c4 3d 38 5c 0e be eb 44 cb bd
       0.041523114 0.09609419 -0.13902366 -0.099252544
000070 f5 3a 0d be 75 ac 0b be 24 be 02 3e ef 93 c1 bc
       -0.13792022 -0.13640006 0.12767845 -0.02363011
000080 3b 4c 48 be 57 83 55 3d be c1 c1 bd 83 dc 53 bd
       -0.1956033 0.05212721 -0.094607815 -0.05172397
000090 f7 73 a3 bc 97 a8 fe bc f7 2b cd bd 9c 74 f6 3d
       -0.019952757 -0.03108625 -0.10018151 0.1203396
0000a0 94 51 71 3d a5 b6 cf 3d 88 55 51 3d 38 42 a7 3d
       0.05891569 0.101422586 0.05110696 0.08166927
0000b0 2b ed 9a bd 50 cc b3 3d 36 e0 a3 3d d8 5f 74 3d
       -0.075647675 0.08779204 0.08001749 0.059661716
0000c0 6d 74 22 3e 3d e7 bc bd 24 87 a9 bd 19 9e 57 bd
       0.15864725 -0.09223793 -0.08277729 -0.052641008
0000d0 c7 71 b4 bd 7c 3c 8d 3d 78 c2 1b be 88 32 00 be
       -0.08810764 0.06896302 -0.15210903 -0.12519276
0000e0 65 cf 1e 3d 37 ec d6 3d 3d 1f bb 3d 06 d0 90 3d
       0.038772006 0.10494273 0.091368176 0.07070927
0000f0 75 e2 1c be 41 2c 87 3d 0d c0 64 bc 85 80 f7 3c
       -0.15320762 0.06600238 -0.013961804 0.03021265
000100 fc 2a 38 be 6a c9 c0 bd 08 9f 27 3e 91 41 df bd
       -0.17985147 -0.09413417 0.1636926 -0.10901178
000110 f4 e2 2e 3c f8 b8 b5 bd ff 31 41 be 90 b8 32 3c
       0.010674227 -0.088731706 -0.18866728 0.010908261
000120 d0 b1 15 bd a4 19 3a 3e 58 70 c4 3d 4f 77 8f 3d
       -0.03654653 0.18173844 0.0959174 0.07005178
000130 6d 86 84 bd 05 bd 3e bd 2f d4 83 3d 00 6b d3 3c
       -0.06470952 -0.04656698 0.06436955 0.025807858
000140 0a 60 b5 3c b0 db b7 bd e9 a5 e7 bd 6a 12 a2 3d
       0.022140522 -0.08977449 -0.11310942 0.079136685
000150 69 cc 16 be 64 e1 72 3d df b9 c9 bd 56 e8 f5 bc
       -0.14726414 0.05929698 -0.09849905 -0.030018013
000160 cc ea cf bb 43 63 04 3e bd a3 13 be 73 df ce bb
       -0.0063451286 0.1292849 -0.1441793 -0.0063132583
000170 42 c5 1b 3d 17 c5 d7 3d 83 ab 77 bd c1 3f 08 3e
       0.038029917 0.10535639 -0.0604663 0.1330557
000180 6d 3a 01 3e 86 45 46 bc 01 01 ac bc 02 ee cd bd
       0.12619944 -0.012101537 -0.020996572 -0.10055162
000190 6f 26 a0 3d 26 3f 0e be de 46 ec 3d 6f 40 9e bc
       0.078198306 -0.13891277 0.11536954 -0.019317834
0001a0 7a 2e 1c 3e a0 60 08 3e 02 a1 95 bc d8 49 9c bd
       0.15252104 0.1331811 -0.018265251 -0.07631272
0001b0 0b c9 13 bd 03 d8 62 bd 35 7a af bd 5a 16 f7 3d
       -0.0360804 -0.055381786 -0.08568231 0.1206481
0001c0 b7 46 a1 bd 65 e0 a9 bd 97 af c5 bd cd 07 3a bc
       -0.07874816 -0.08294753 -0.09652632 -0.011354399
0001d0 27 3d d3 bd 72 75 a8 bd 9f 68 c0 3d c1 2b 25 bd
       -0.10314398 -0.08225526 0.09394955 -0.04032493
0001e0 77 36 65 3d 67 d4 25 bd 70 15 c2 3a 6d b8 f0 3c
       0.055960145 -0.040485766 0.0014807414 0.029384816
0001f0 5c 1b 96 3c 63 a2 b2 3d 36 9c fc 3d b2 dd 35 3e
       0.018323593 0.08722379 0.12334482 0.17760351
000200 54 e3 fe 3d e2 69 a7 3d 27 04 e8 bd 68 99 c5 3d
       0.12445703 0.081744924 -0.11328917 0.096484005
000210 0d 42 c8 3d af ed 84 bb a4 c1 ae 3d 2f 24 9a 3d
       0.09778223 -0.0040566544 0.08533028 0.07526433
000220 da c0 25 3e 50 c9 0d 3d 50 06 5e bd 0c 26 75 3d
       0.16186848 0.034615815 -0.05420524 0.059850737
000230 0c 1f 07 be d1 e1 c8 bd a0 4a 45 bd e2 61 24 3e
       -0.13195437 -0.09808696 -0.04816687 0.16052964
000240 c4 f9 f7 3d 29 82 1d 3d cf aa 49 bd 3b 04 cb 3c
       0.12108186 0.03845421 -0.04923516 0.02478229
000250 51 a0 b7 bc e1 8d 44 be 71 d6 a3 3b bc b8 f0 3c
       -0.022415312 -0.19194748 0.0049999286 0.029384963
000260 a7 fa 25 3d 1c eb 44 3a d5 ac 02 3e aa 6c a9 bc
       0.040522244 0.00075118407 0.12761243 -0.020681698
000270 6d ed 04 bd 13 15 26 3d 28 d8 51 3d e0 9d f8 3d
       -0.03245299 0.04054744 0.051231533 0.12139487
000280 53 fd b2 bd 74 fe 16 be a6 28 aa 3d d3 83 9c 3b
       -0.08739724 -0.14745504 0.08308534 0.004776457
000290 5c 79 0f be 50 34 bc 3c 24 31 d5 3d e4 df 42 3e
       -0.14011139 0.022974163 0.104097635 0.1903072
0002a0 1e 99 a9 3d ea 8d b7 bd 10 0b 83 bd 00 8d 1a be
       0.08281158 -0.08962615 -0.063985944 -0.1509285
0002b0 06 cc 6d be 14 31 4f be 27 95 08 be 6e 99 80 bc
       -0.2322236 -0.20233566 -0.13338147 -0.015698161
0002c0 8b 2d d7 bd fa 45 de 3c 21 8a 64 bd e2 fd ee 3d
       -0.105067335 0.027132977 -0.055795792 0.11669518
0002d0 72 82 53 3d 7b d4 6b 3e 96 c3 1f 3e cd 9f ee bd
       0.051638074 0.23030274 0.15601954 -0.11651573
0002e0 d5 a1 cd bd 66 c2 ce bd 8d ab 3e bb 13 93 b9 bd
       -0.10040633 -0.10095672 -0.0029093951 -0.09061255
0002f0 48 97 4b bd 6d 1d b5 bc 64 4b 07 3e b8 81 c6 bd
       -0.04970482 -0.022108758 0.13212353 -0.09692711
000300 51 8a 0d be 57 98 ad bd 29 8e 04 be 9d 25 77 3c
       -0.13822295 -0.08476322 -0.12944855 0.015084651
000310 46 41 ba 3d 1a 10 89 3d d2 d0 8b bc c5 de b1 3c
       0.09094481 0.06692524 -0.017067347 0.02171267
000320 90 f3 a4 bc 69 b5 87 bd af a2 45 bd 24 23 7a 3c
       -0.02013567 -0.06626398 -0.04825085 0.015267167
000330 bf ae 1d 3e 6c 94 10 3e 50 16 a4 bd 28 e4 ca 3c
       0.15398692 0.14119118 -0.08012068 0.024766997
000340 9f 2b 2a be 3c 7a de bc 0d 09 cf 3c 1b d9 f5 bc
       -0.16618203 -0.027157895 0.02527287 -0.03001075
000350 16 07 ef bd 4e 84 0a 3e 8a 86 3e 3e 62 e2 a0 bd
       -0.116712734 0.13527033 0.1860601 -0.07855679
000360 0c b5 f8 bd c8 bd 45 3d 8f bd a6 3d 53 3d 82 bd
       -0.12143907 0.048276693 0.08141624 -0.06359353
000370 c9 df 2c bc 5b 5b 01 3e 0c 24 71 3e fb 4c 94 3d
       -0.010551401 0.12632506 0.23548907 0.07241245
000380 7a 58 ac bc 4f 6b 0a be f7 13 02 be 4c 70 a3 bc
       -0.021038283 -0.13517497 -0.12702928 -0.019951008
000390 e5 61 dc bd b7 a5 49 3d 46 a9 0d 3d 78 e5 3a 3c
       -0.107608594 0.049230304 0.03458526 0.011407249
0003a0 7e 49 8b bd 23 3c 8b 3c f8 b8 35 bd 20 d7 fd bc
       -0.06801127 0.016996449 -0.044365853 -0.030986369
0003b0 ab 5c 97 bd 6b 9b 53 3d f2 38 eb bc 98 8a d2 bd
       -0.07390722 0.05166189 -0.028713677 -0.10280341
0003c0 8b ac ac 3d 8b a8 39 3d b5 ad b5 3d 1b bf 05 3e
       0.084313475 0.04532675 0.088710226 0.13061182
0003d0 49 dc de 3d d6 b1 17 3e 92 2a d6 3d 53 45 ac 3b
       0.1088186 0.14813933 0.104573384 0.0052572875
0003e0 b8 a7 52 3e 40 83 39 bd f0 df 30 3b dc 6d bd bc
       0.20571792 -0.045291185 0.0026988946 -0.023123674
0003f0 2d 7d 2e 3d e1 92 10 3e c5 0a 6d 3d 1b da fc 3d
       0.042599846 0.1411853 0.0578716 0.12346288

gru.weight_hh_l0 f4 [96, 32]
000000 2f 0d 66 3c cd 4f 06 3d 84 45 29 bd ed 57 57 3c
       0.014041229 0.032790948 -0.04132606 0.013143522
000010 fd db 20 3d 48 8c 1c bd 35 1b a3 3c 4c 78 3a bd
       0.039272297 -0.03821972 0.019910434 -0.04552488
000020 2f 4d 01 3d a6 69 79 bd ce f3 0b 3d 5e 08 ac bc
       0.03156775 -0.06089177 0.034168057 -0.021000084
000030 75 c0 08 be b0 72 23 3d 03 9b c8 bd fb 35 43 3d
       -0.13354667 0.039904296 -0.09795191 0.0476589
000040 b5 a5 15 3d 3f 53 e1 bc 45 a5 04 3d 9f 03 36 bd
       0.036534984 -0.027505515 0.032384176 -0.044437047
000050 7d 16 2f 3d 38 83 10 3c 7a 40 f3 bc 6f 78 6d bd
       0.042746056 0.0088203475 -0.02969383 -0.057976183
000060 b0 2d d0 3d 7f 74 3c 3d c7 f1 b2 3d 7c 82 a5 bd
       0.10164964 0.046009537 0.087375216 -0.080815285
000070 b2 2a 90 3d e0 b5 1f 3a 2a f7 88 bd f2 cb ac 3d
       0.070393935 0.000609247 -0.06687768 0.08437337
000080 f7 5c 92 bd 8d 1a 05 bc b9 88 37 3d 77 6d 3f bb
       -0.07146638 -0.008124006 0.044808123 -0.0029209533
000090 f7 71 18 bd 96 f0 46 bc 18 87 fd 3c 04 68 53 bd
       -0.03721806 -0.012142321 0.030948207 -0.05161287
0000a0 46 8a 83 3d 0d dc 97 3c 6e 35 22 be 6e 07 98 bd
       0.06422858 0.018537546 -0.15840694 -0.07423292
0000b0 94 a8 16 3d 47 98 69 3d ac 44 fd 3c 36 2a 38 bd
       0.036781862 0.05702999 0.030916534 -0.04496213
0000c0 7c 05 9d bd 39 23 76 bc 3d f6 e7 bc 12 37 76 3d
       -0.07667062 -0.015023046 -0.028315658 0.060111113
0000d0 29 17 bf 3c fe 1f 8d bd d9 17 00 3c 01 a2 12 3d
       0.023326473 -0.06890868 0.007818186 0.03579903
0000e0 3b bd 23 bd 18 0e 77 bd f4 91 e5 3d 62 19 82 bd
       -0.039975386 -0.060316175 0.11209479 -0.06352498
0000f0 ac be fb bd 3a e7 b3 bd c7 bc 4a 3d 1b 78 a6 bd
       -0.12292227 -0.08784337 0.04949644 -0.08128377
000100 f6 a6 08 be f4 e9 09 be db 67 09 3b 3e 44 19 bc
       -0.1334494 -0.13468152 0.0020966444 -0.009354649
000110 c4 52 eb bc 91 45 49 3e d4 da 57 be 0a 83 32 be
       -0.02872599 0.19655444 -0.2107957 -0.174328
000120 89 e9 27 bd 53 16 ce 3d 7f 5f 15 be 9c e6 20 3e
       -0.0409942 0.10062852 -0.1458721 0.1571297
000130 d0 12 86 bd e4 85 65 bd 78 ad c2 3d 2d 38 6e 3c
       -0.06546557 -0.05603589 0.09505743 0.014539761
000140 0a 80 45 3d 44 f8 09 be 1d 44 60 3e 45 f6 b2 bd
       0.04821781 -0.13473612 0.21900983 -0.087383784
000150 a7 68 c1 3d 70 78 69 3e d1 7b c9 3d 08 bc 76 be
       0.09443789 0.2279985 0.09838069 -0.24095166
000160 23 64 8d bd 6c 17 1a 3d b2 b0 cd 3d c7 ad 4d bd
       -0.06903865 0.037619993 0.100434676 -0.050214555
000170 cc 7a 88 3e 9d 2d e7 bd 21 db 12 be b9 65 20 3d
       0.26656187 -0.11287997 -0.14341404 0.03915951
000180 ce 46 b5 3d 45 02 71 3d 80 0d 8c bd c5 cd ab 3d
       0.088513955 0.058840055 -0.068385124 0.08388857
000190 b3 1c 9a bd 1c 08 df bd 64 11 ad bd b3 c8 f7 3c
       -0.07525005 -0.108902186 -0.084505826 0.030247068
0001a0 42 ea 82 bd a4 0b a8 bc 62 a3 e8 3d d9 1d 13 bd
       -0.063923374 -0.020513363 0.11359288 -0.035917137
0001b0 84 fc a3 3d 66 84 83 3d 81 44 09 3d 0c 7d de bd
       0.08007148 0.064217374 0.033512596 -0.108636945
0001c0 64 b2 81 bd 12 c9 c2 3c 81 72 59 bd 8f ac d0 bc
       -0.063328534 0.023777518 -0.053087715 -0.025472907
0001d0 b0 bf 27 3d a3 e4 20 bd cd 0b a8 3c a4 66 75 3d
       0.04095429 -0.039280545 0.02051344 0.05991234
0001e0 8d 7f c6 3d a2 12 32 bd 0a 1e 1b 3d 6c d3 64 bd
       0.09692297 -0.0434748 0.037870444 -0.05586569
0001f0 3f ef 64 3d 4c 0f e6 bc 70 dd ad bd 56 a6 f1 3c
       0.055892225 -0.028083466 -0.084895015 0.02949826
000200 9d aa b3 3d c3 10 bf 3c 77 6f 5c bd 3c 97 8b 3e
       0.08772776 0.023323422 -0.05381724 0.2726382
000210 84 ff 02 3a 77 42 29 3e 83 a3 8b 3d 56 85 32 be
       0.0004997181 0.1652926 0.06818297 -0.17433676
000220 17 f5 a8 bd 42 90 9b 3c 63 a0 be 3a 1e 4f 47 be
       -0.08249872 0.018989686 0.0014543649 -0.19463775
000230 19 c4 71 3c f9 c4 cd 3c 63 db 91 3c 2e 5a 9b bd
       0.014756226 0.025118338 0.017804807 -0.0758556
000240 7b 87 c2 be b3 4a 6d bd ad 13 1c 3d e9 cd 46 bd
       -0.37993988 -0.057932567 0.0381047 -0.048536215
000250 af fd af 3d 1e fb f2 bd 6b c5 a7 bd ed c0 31 be
       0.08593308 -0.11864303 -0.08191951 -0.17358752
000260 f7 f6 81 3d 06 1b e7 3d fb 3a 47 3d ba 5a 17 3e
       0.06345933 0.11284451 0.048640233 0.14780703
000270 79 ed 6b 3e b4 d2 41 be 2f 28 2f 3d 5c 82 d6 3d
       0.23039807 -0.18928033 0.04276293 0.10474083
000280 d9 53 a3 bd 4f bc 8b 3d 59 21 3e be 62 2b 4a be
       -0.07974977 0.068230264 -0.18567409 -0.19743112
000290 59 70 8b bb cd 49 8f bc eb ed cb 3d a6 7a 81 3d
       -0.0042553362 -0.017491246 0.099574886 0.063222215
0002a0 bb c4 30 bd a6 47 68 bd 5a 4f 32 3e 34 05 f2 bc
       -0.043156367 -0.056708954 0.17413083 -0.029543497
0002b0 9d 6f 25 be 40 1b a6 3c c2 f9 30 3b a3 c7 1b be
       -0.16155858 0.020276666 0.0027004336 -0.15212874
0002c0 4b 88 3c be 92 08 89 be 4e 63 b3 bd b2 5c a8 3d
       -0.18411367 -0.2676435 -0.08759175 0.08220805
0002d0 7c 83 12 be 5d 62 5c 3b 57 ca b4 3d cc af a4 3d
       -0.1430797 0.0033627965 0.08827656 0.08041343
0002e0 ce 71 1c 3e 21 f9 22 3c 03 d1 cf 3b 0d 6e fd bd
       0.15277788 0.009947092 0.006342055 -0.12374506
0002f0 9d 80 82 3e 80 96 af bd 86 55 1e be 53 9b bb 3d
       0.2548875 -0.085736275 -0.15462312 0.09160485
000300 6a 6a da 3c de 7c 84 bc cd 3f 09 3d 5c 2e ae 3c
       0.02666207 -0.016172823 0.03350811 0.02126234
000310 52 b4 7d 3d cf 57 63 3d 99 02 ba bd 70 94 21 3e
       0.061939545 0.055503663 -0.09082527 0.1577928
000320 c5 1c 61 3d 68 78 c3 bd 01 46 5d 3d 61 7d 06 3c
       0.054959077 -0.0954445 0.05402184 0.008208604
000330 f8 2c 51 3d e5 27 79 3c 30 dd a0 bd 6a 6f 9b bc
       0.051068276 0.0152072655 -0.07854688 -0.018974025
000340 d0 7c df bd ee 67 42 3d 98 ad ef 3d 7d c8 e5 3c
       -0.10912478 0.047462396 0.11703032 0.028049702
000350 41 73 1a 3e 65 e7 7e 3d 11 db 6d 3d e7 f6 88 3c
       0.15083028 0.062232394 0.058070246 0.016719295
000360 51 ae 97 3c ef c1 b8 3d 6a a0 24 3e d7 b3 9c bd
       0.018515738 0.09021365 0.16076818 -0.07651489
000370 ef b5 56 3e 60 f2 31 3d f8 81 04 be f0 1c 59 3d
       0.2096784 0.043444037 -0.12940204 0.053006113
000380 63 38 5e bc 62 6e 05 3e 74 de cf bc 58 97 a4 bd
       -0.013563248 0.13030389 -0.025374629 -0.08036679
000390 72 2a bf bd 93 7d da bc 37 3e c1 bc 34 4c b3 3d
       -0.09334268 -0.026671207 -0.023589237 0.08754769
0003a0 c1 f7 ce bc 49 57 4e 3d 59 76 02 bd 3f ae c6 3d
       -0.025264623 0.05037621 -0.031851146 0.097012036
0003b0 95 d8 a6 3d d0 9d bf bb f7 c5 c1 bd f5 3a b2 bc
       0.081467785 -0.00584767 -0.09461587 -0.021756629
0003c0 6a 71 ac bc f2 9c 75 3d 0a f6 28 bd cc a2 92 bc
       -0.021050174 0.059964128 -0.041250266 -0.017899893
0003d0 d5 8b 90 bd 73 1c 80 bd 45 44 b3 3d 0f ac eb 3b
       -0.07057921 -0.06255426 0.08753256 0.007192142
0003e0 7c dc 04 be d0 e6 ca 3d 7c 86 28 3e 7f fd f8 3d
       -0.12974733 0.09907305 0.16457552 0.121577255
0003f0 b8 5f 7c bd 71 37 c6 3d 49 0a 1b bd 33 07 81 bd
       -0.061614722 0.09678543 -0.037851606 -0.06300201

gru.bias_ih_l0 f4 [96]
000000 2f 6e 93 bd 9e 8d 05 3d 73 c8 6f 3c 7f 82 93 3c
       -0.0719875 0.03260576 0.014635193 0.018006561
000010 1c e6 68 3b e3 62 f9 bb 39 fe 85 3c ea b4 98 bc
       0.0035537547 -0.007610665 0.016356574 -0.018640954
000020 ce 90 17 3e 2e 63 db bb 27 b7 45 3e 84 0d 83 bd
       0.14801332 -0.0066951727 0.19308148 -0.06399062
000030 d8 6a ad 3d 4a 63 01 bc 34 6c c7 bd 23 c0 3c bd
       0.084676445 -0.0078972075 -0.09737435 -0.046081673
000040 52 cf 1b 3e e3 7b b6 3d 3e 28 44 3c e8 49 ba bc
       0.15215805 0.08910348 0.011972485 -0.02274032
000050 ac c1 b5 bd 74 4c 14 3e d0 ec 53 bd 09 ba 48 3e
       -0.088748306 0.1448229 -0.051739514 0.19602217
000060 f2 a9 06 be e1 50 33 3d e1 4e 46 3e 4b 4d ce 3c
       -0.13150766 0.043778304 0.19366027 0.02518334
000070 a0 c0 d0 bd 6e b8 9a bd 1d 40 c6 3c 34 d9 0f 3d
       -0.1019299 -0.075547084 0.024200493 0.03511925
000080 de 86 17 3e 58 ea 57 be c2 f6 95 3e 30 37 b8 bd
       0.14797541 -0.21085489 0.29289824 -0.08994901
000090 a5 8b 9a 3d e5 88 e0 bd 95 f8 ba 3d 2e 39 d1 bd
       0.07546166 -0.109636106 0.091294445 -0.10215984
0000a0 ff 11 5a 3d c0 ae 85 3e 3c 72 34 3e 3e 32 4b 3d
       0.05323982 0.26109886 0.17621702 0.04960846
0000b0 6d 5e 81 3e a6 47 f3 bd 62 f7 cc 3d 89 fa f5 bc
       0.25267354 -0.118789 0.10008122 -0.030026691
0000c0 cd 1f 1b 3e f8 0d 8b 3d 2e 64 03 bd eb 9e fa 3d
       0.1514885 0.06789774 -0.03207796 0.122373424
0000d0 98 bc 33 3e f1 66 31 be f3 a9 2a be e4 b0 0c 3d
       0.17552412 -0.17324425 -0.16666393 0.034348384
0000e0 fa 5c d0 3d e7 aa e0 bd 81 0d 94 3c 66 8d 22 3e
       0.10173984 -0.10970097 0.018072845 0.15874252
0000f0 4d 6c 94 bd 72 15 9e 3e 66 c9 d4 3d fe f5 3f 3e
       -0.07247219 0.30875736 0.10389976 0.18746182
000100 47 c0 28 3d 8a 60 ba bd 68 24 1b bd 89 4f 0e 3d
       0.041198995 -0.091004446 -0.037876517 0.03474382
000110 0e e4 6e 3e 88 0f 8d 3d a2 7f ce 3c d2 e1 b6 bc
       0.23329183 0.06887728 0.025207344 -0.022324476
000120 3e e7 24 be 25 44 67 be 50 18 87 3c e2 29 b1 3c
       -0.16103837 -0.22584589 0.016491085 0.021626417
000130 43 d6 f6 bc 40 ad 4d 3e b6 9b 40 3e be f5 bf 3d
       -0.030131465 0.20085621 0.18809399 0.093730435
000140 6f 2c 3e 3e 51 52 bf bd fa ff 5b be e5 60 7e be
       0.18571638 -0.093418725 -0.21484366 -0.2484165
000150 40 d1 2b 3e 5d 1c 3f 3e 76 69 a4 bd 20 9d 81 3e
       0.16779041 0.18663163 -0.080279276 0.2531519
000160 3d 08 22 3e e5 7e 1f 3d 40 6a bb bd a5 c6 43 3d
       0.15823455 0.038939375 -0.09151125 0.047796864
000170 d7 65 87 3d cb 99 6b bd 52 2a af 3c 95 d0 31 3d
       0.06611221 -0.057519715 0.021382485 0.04341181

gru.bias_hh_l0 f4 [96]
000000 6b 31 70 3d 74 13 6b 3c 13 95 5a 3d 3f 62 20 3d
       0.05864088 0.0143479 0.053364825 0.039156195
000010 ae 5d 01 3d 6b 51 d6 3d c3 2e fd 3d 0b d2 fa 3c
       0.03158348 0.10464748 0.12362435 0.030617734
000020 21 86 2c 3e a0 a7 82 bc 7b b1 4b 3e 2f d2 81 bd
       0.16848041 -0.01594907 0.19891922 -0.063389175
000030 67 62 01 3e 17 cf 8c bb 02 bb 7d bc 16 63 fe 3d
       0.12635194 -0.004297148 -0.015486481 0.12421243
000040 ee 98 54 bc a3 72 c3 3d 44 31 1f 3d e8 21 e7 bb
       -0.012975914 0.095433496 0.038865343 -0.0070536025
000050 86 b8 a3 bc 56 f7 4b 3e 56 e5 af 3d 9e 7e 96 3e
       -0.019985449 0.1991857 0.08588664 0.29393476
000060 d1 2a 0d bc 9a a9 20 3e c5 81 35 3e a3 6b e4 bd
       -0.008616165 0.15689698 0.17725284 -0.111533426
000070 e5 7c a9 3d 6d e9 0e 3c 24 60 c8 bd 05 6f c9 3d
       0.08275775 0.008722645 -0.09783962 0.098356284
000080 cb 63 4b 3a 4b 8a 56 be 5b 4a 42 3e b3 9f 0c 3e
       0.0007758706 -0.20951192 0.18973677 0.13732795
000090 16 49 f3 bd 4b d6 0c 3d c6 27 d7 ba 1c 27 e9 3d
       -0.118791744 0.034384053 -0.0016415052 0.11384413
0000a0 13 cb 72 3e b1 8d f5 3d d2 ce 5e 3e e2 3b 0e 3e
       0.23710279 0.11989916 0.21758583 0.13890031
0000b0 ae e6 bc 3d 3c 85 51 bd a2 46 17 3e 98 fa 23 bd
       0.09223686 -0.051152453 0.14773038 -0.040033907
0000c0 18 24 b0 3d f3 e7 45 bd d5 af f9 3d f3 75 41 be
       0.08600634 -0.048316907 0.121917404 -0.1889265
0000d0 9e b0 ec 3c 70 58 63 bd 83 5e 8c bd 55 b8 eb 3d
       0.028892811 -0.055504262 -0.06853964 0.11509768
0000e0 e0 9f ac 3d 35 29 a5 3d 5f 67 84 3d a5 00 c9 3d
       0.08428931 0.080645 0.06465029 0.09814576
0000f0 56 2d 4e be 89 9f ce 3e dc 84 88 3e 03 3e 13 3e
       -0.20134482 0.4035609 0.26663864 0.14379124
000100 b6 6c 01 3e c1 65 95 3d b2 8a 71 be 5e 64 14 bd
       0.12639126 0.07294799 -0.23588064 -0.03622853
000110 19 a5 e2 bd cc 13 c7 3c bc 2e 35 be 2f 82 98 3b
       -0.11066646 0.024301432 -0.17693609 0.004654191
000120 a3 9d eb 3b 64 ec 4d be 2f 59 8e 3d bd 38 8f bc
       0.0071904226 -0.20109707 0.06950604 -0.01748311
000130 70 d0 c8 bd 6c 04 cb bd f6 35 ce 3d a7 c7 3c be
       -0.09805381 -0.09912953 0.10068886 -0.18435536
000140 d6 88 9d bd d8 ca 66 3e 2f 35 8f bd 9e 3a ae bd
       -0.07692115 0.22538316 -0.06992566 -0.08507274
000150 ec 66 31 be 90 d6 6d 3e 2c e2 13 3e 46 88 0a 3b
       -0.17324418 0.2322638 0.14441746 0.0021138354
000160 cc c4 47 3e 24 d2 de 3d 85 47 1d be a7 88 25 be
       0.19508666 0.10879925 -0.15359314 -0.1616541
000170 0a f2 8e 3d 1d 1e 19 be 31 e6 2c 3d fe ac 86 bd
       0.06979759 -0.14952894 0.042211715 -0.065759644

gru.weight_ih_l1 f4 [96, 32]
000000 6b 2e 80 be dd bf 58 3e 60 8c 8b ba e8 ec 8d be
       -0.25035414 0.2116694 -0.0010646693 -0.27719808
000010 7a 48 e0 3d 6e 05 7d 3e 5d 6b e8 bc d1 46 a4 3c
       0.10951324 0.24709103 -0.028371507 0.0200533
000020 6e ef 68 3d 0a ee 7c 3c 01 50 d8 bc d0 9b 1c 3e
       0.056868963 0.015437612 -0.026405336 0.15293813
000030 a5 e9 bb 3d 41 e0 ca bd 67 94 92 3d 42 f2 65 bd
       0.091754235 -0.09906054 0.07157212 -0.05613924
000040 01 7d bd 3d d8 1f 2e 3e 49 a0 9d 3d 7c b9 2b be
       0.09252358 0.17004335 0.076965876 -0.16769975
000050 bc 65 9f bd 36 ee 60 3e ec ec 59 3e 57 fb e2 bd
       -0.07783076 0.2196587 0.21281785 -0.110830955
000060 43 9f 0a bd 03 0d f3 3d 46 df d2 bd c4 a5 b9 bd
       -0.03384329 0.11867716 -0.10296492 -0.090648204
000070 83 64 ac 3e 69 79 0c bc 6f ca 0f be 58 17 58 3d
       0.33670434 -0.008573868 -0.14042066 0.052756637
000080 dc cb 66 be 5d f5 c5 3d da 35 cd bd 44 74 62 be
       -0.22538704 0.0966594 -0.10020037 -0.22114664
000090 75 54 84 bc 09 59 01 bc ce a3 0b be 4a 2a d4 bd
       -0.016153554 -0.007894763 -0.13636705 -0.103596285
0000a0 59 de 29 3d 7c 83 62 be b5 49 3d bd c7 32 74 3e
       0.041471813 -0.2212047 -0.04621287 0.23847495
0000b0 a9 c2 a6 3d 68 9a 38 3d fe 9c 89 bc d2 22 df bd
       0.08142597 0.04506913 -0.016798493 -0.10895313
0000c0 a4 01 37 3e e3 a8 62 3e c0 cb a2 3c 2b e0 6b 3e
       0.1787172 0.22134738 0.019872546 0.23034732
0000d0 00 f8 fd 3d c2 87 09 3d 3b b3 3b be 0c 45 8b bd
       0.12400818 0.033576734 -0.1833009 -0.06800279
0000e0 25 88 4e 3e e3 2b 9d 3d f4 d0 73 bd 33 1e d7 3d
       0.20169123 0.07674386 -0.059525445 0.10503807
0000f0 41 75 e0 bd b3 ef 7f 3e 54 c6 82 be 4c 3c 99 3d
       -0.109598644 0.24993782 -0.25541937 0.07482204
000100 14 5f 26 3e 80 30 59 be 82 f9 16 3d 4f e2 10 be
       0.16247207 -0.21209908 0.036859043 -0.1414883
000110 6f dd c8 3c 32 ef a9 bd 7f ba 64 be db d2 b8 bd
       0.02451965 -0.08297576 -0.22336768 -0.090245925
000120 2f 47 01 be fa 7c 15 3e 5a 8e 85 bd ae 8e 2b 3e
       -0.1262481 0.14598456 -0.06521292 0.16753647
000130 71 8e 8c 3c 9a 00 bd 3d 61 bf 56 3e 7f 6b 1f 3e
       0.017157765 0.0922863 0.20971443 0.1556835
000140 9b db 27 bd 01 2a 70 3e b9 c5 e4 bd fb 1d 74 bd
       -0.040980916 0.23453523 -0.11170525 -0.059598904
000150 a6 a2 46 3d ef 17 2e 3e de d7 0d be cf 33 da bd
       0.048494957 0.17001317 -0.13851878 -0.10654413
000160 d5 ec f3 3d 7c 8d 80 3e b3 db 5e be 82 2d 09 3d
       0.119104065 0.25107944 -0.21763496 0.033490665
000170 28 48 73 bd 91 5d 8c 3e 80 c9 bf b9 40 85 e9 3d
       -0.059394985 0.27415136 -0.00036580488 0.114023685
000180 2e 2c 7d 3d 7c 54 33 3e cd 20 e8 bd 90 fd d5 be
       0.06180971 0.17512697 -0.11334381 -0.41795015
000190 0c 11 5c 3d 86 8f 2d 3e dd 2e c5 bc 15 b5 92 3d
       0.053727195 0.16949281 -0.024070198 0.07163445
0001a0 3d ae b2 3c a7 4e 9a be 9f 79 20 3d 00 df 98 3d
       0.021811599 -0.30138132 0.039178487 0.07464409
0001b0 32 d7 a2 bd 79 87 0d bd ea ee 44 3d 69 47 65 3d
       -0.079512015 -0.034553025 0.04807941 0.055976305
0001c0 0b a0 37 3e 8c ca 25 3e 7b 90 0b bd 5d d8 00 3d
       0.17932145 0.16190547 -0.034073334 0.03145634
0001d0 a8 3a f0 bd 51 f1 d1 bb fd b1 94 bc eb 8d 9d be
       -0.11729938 -0.006406941 -0.018151278 -0.30772337
0001e0 03 7f fa bd 48 1c d4 3d 01 b8 9b bd 20 5e 67 3d
       -0.12231257 0.10356957 -0.07603455 0.05648625
0001f0 ff 2d 87 3e 38 ac 68 3e a4 04 1b be b3 a7 a5 be
       0.2640228 0.22721946 -0.15138489 -0.32354507
000200 e1 7d 10 be 8e a2 c0 bb 9d d9 e5 3d e1 60 86 3d
       -0.14110519 -0.005878753 0.11223147 0.06561447
000210 1a e8 c1 3d 39 d8 b1 3d 52 5d 9d 3d ba 5a cc bd
       0.09468098 0.08683819 0.07683815 -0.09978242
000220 cd fe ac bc e0 74 01 be 6f e5 cf 3d c7 99 ae 3e
       -0.021117592 -0.1264224 0.10151183 0.34101698
000230 c0 97 cf 3d 8b 45 4e bd 41 57 02 3e 9e 9c a1 bd
       0.10136366 -0.05035929 0.12728597 -0.078912005
000240 4a c3 b0 3e e9 15 37 3e 9f 9c 83 3c a5 12 bc bd
       0.34523994 0.17879452 0.016065894 -0.09183244
000250 56 8e a7 3d 93 93 ea bd ca cb 55 be ca d2 c7 bb
       0.08181445 -0.11453929 -0.2087852 -0.006098126
000260 36 fd 4b 3e b3 9e 67 3e 37 a8 02 be 3a 7d 2f 3e
       0.19920811 0.22619133 -0.12759481 0.17137614
000270 5e 4f 11 be 2f 23 8a bd 5d f6 53 be 3e 5e 05 be
       -0.14190432 -0.06744992 -0.20699449 -0.13024232
000280 9e a9 90 be 02 1b bf 3d f4 77 be 3d 91 bb ab 3c
       -0.28254408 0.09331323 0.09300223 0.020963462
000290 de dd 79 be 40 9f 01 3d 9c 25 92 3d 59 fe b7 bd
       -0.24401042 0.031646013 0.0713608 -0.0898406
0002a0 a9 0a 35 be 27 ac a7 be c7 23 04 3e da ce 76 3d
       -0.17679848 -0.3274853 0.12904273 0.060255863
0002b0 f8 11 26 3d 13 4b ec bd 3a 5f 24 be 37 1d 00 be
       0.04054448 -0.11537757 -0.16051951 -0.12511145
0002c0 2b dd 29 be d8 5c c9 3e 76 af e3 bd 92 57 09 3e
       -0.16588275 0.39328647 -0.11117451 0.13412312
0002d0 e6 5e 11 3e 2c 78 d3 bd 81 88 8e bd 85 72 fd bd
       0.14196357 -0.10325655 -0.0695963 -0.123753585
0002e0 bc a6 22 3e ca 42 52 3e fc 05 b1 3d 91 78 b4 3c
       0.15883917 0.2053329 0.086437196 0.022030147
0002f0 2e 62 36 3e 08 2c f0 bc e3 18 63 3d 13 75 5c be
       0.1781089 -0.02931787 0.055443656 -0.21529035
000300 8a d3 9b bd 2d 12 30 3e c8 58 49 be 69 fd 16 be
       -0.07608707 0.17194434 -0.19662774 -0.14745106
000310 66 2b a9 3d f5 ab dd 3d c8 cd ee bd 87 a8 51 bc
       0.08260231 0.10823814 -0.116603434 -0.012796528
000320 63 34 11 3d 6f 4d c8 3d be 14 f4 bd 5e cc 7a 3d
       0.03545035 0.09780394 -0.11918019 0.061230056
000330 65 0e de 3d d9 db b4 bd f3 f8 63 3d ab b6 aa 3b
       0.10842589 -0.08830995 0.05565734 0.005209764
000340 ca 10 11 3d ef a7 6f 3e ee de d3 bc a0 db 06 3e
       0.035416402 0.23403905 -0.025863137 0.13169718
000350 53 ff 12 be 0c 69 4e 3c f2 00 e5 3d ec dc 21 be
       -0.14355211 0.012598287 0.11181821 -0.15806931
000360 e3 b7 10 3d e3 89 6d 3e fb 8e 33 be 75 dc d6 bd
       0.035331618 0.23197131 -0.17535011 -0.104912676
000370 a2 66 c7 3e b8 77 f0 3d ff bd 05 3d f9 83 0b be
       0.3894549 0.117415845 0.032651898 -0.13624562
000380 8f 57 89 bd dc af 3d 3e ec 7c 74 be f0 f4 18 be
       -0.067061536 0.18524116 -0.23875779 -0.14937186
000390 31 67 2f 3d bb 9d f0 3c 4e 81 91 bd a1 09 05 bd
       0.04282302 0.029372087 -0.07104741 -0.032479886
0003a0 ca 1c a9 bc c3 5d 79 3c e8 77 7a bd 63 22 06 3e
       -0.02064361 0.015220108 -0.061149508 0.13099055
0003b0 cd 8b 2b 3d 48 af 16 be 4b f0 07 3d 41 46 b4 3d
       0.04188137 -0.14715302 0.033188146 0.08802462
0003c0 d5 bb 9c 3e 0f 8b 5a 3e 29 fb 64 bd c5 06 5f 3e
       0.30612054 0.21342109 -0.055903587 0.21779926
0003d0 6d d1 87 bd b2 cc fc 3c 02 69 9f 3e 78 78 13 be
       -0.06631742 0.030859325 0.31134802 -0.14401424
0003e0 7f 9c 64 bd d0 fc 01 3c b6 b2 04 bd f9 db 2c 3e
       -0.05581331 0.00793381 -0.032396995 0.16880788
0003f0 5c 52 6d 3e 35 f6 da 3d 91 c1 b4 bc 97 be 05 3e
       0.23175949 0.106914915 -0.022064956 0.13060986

gru.weight_hh_l1 f4 [96, 32]
000000 3e a4 07 3e 82 23 fe bd 16 ee 6b bd 05 ea fd 3d
       0.13246247 -0.12409116 -0.057600103 0.12398151
000010 4d 9c a9 bd 12 3b 4a be 00 d1 83 3e 1b 89 58 bd
       -0.08281765 -0.19749096 0.25745392 -0.05286513
000020 41 e1 71 3e c9 2c 28 bc 8f ea ba 3d 6f dd 54 3d
       0.23621084 -0.010264584 0.0912677 0.051968988
000030 5f e0 84 be 22 bd 22 bd a7 3d ed bd 07 f1 f2 3b
       -0.25952432 -0.039731152 -0.11584025 0.0074139866
000040 5b 2f ee bc d5 f3 2c 3e 8b 59 32 3e 77 b0 bc bd
       -0.029075315 0.1688989 0.1741697 -0.092133455
000050 b0 6a 63 3e 9c e4 03 bc 7e 91 b3 bd d5 71 9c bd
       0.22208667 -0.00805011 -0.08767985 -0.07638899
000060 94 f3 7e bd 67 5a 79 bd d7 a6 80 bd 73 9f 45 3e
       -0.062244013 -0.06087723 -0.06281822 0.19299106
000070 ec 8b b4 bd fd 53 3f bd 4c a1 8a 3d 9d ad ff bb
       -0.088157505 -0.046710957 0.06769046 -0.0078026787
000080 05 79 38 3e 88 a5 18 be 78 c3 00 3e fb 27 9e bd
       0.18014915 -0.14906895 0.12574565 -0.077224694
000090 a4 9e 05 be 57 d7 e3 3d a9 28 6c bb 48 0a 21 3e
       -0.13048798 0.11125057 -0.0036034978 0.15726578
0000a0 81 d1 0c 3e 69 83 79 3d 36 65 26 3e c0 a0 0b 3e
       0.13751794 0.060916338 0.16249546 0.1363554
0000b0 95 92 97 3d ec 8e d6 3d f5 dc ac 3d 3b 7d cd 3d
       0.07401005 0.10476479 0.08440582 0.100336514
0000c0 01 d4 86 3e d4 df 14 3e 6e 82 07 3e 0d ab ed bb
       0.2633362 0.14538509 0.13233349 -0.007253057
0000d0 67 e3 4d bd 34 53 96 3d 47 05 c4 3d 55 30 18 bc
       -0.050265696 0.073400885 0.09571319 -0.009288867
0000e0 1b 82 12 3c e8 75 ea bd f9 84 40 3d 95 4d 91 bd
       0.008942152 -0.1144827 0.047001813 -0.07094876
0000f0 2b 98 a5 be 89 5e 24 be 6f 3f 5f 3d 6b b8 0d be
       -0.32342657 -0.16051687 0.054503854 -0.13839881
000100 d5 4b 9b bd 42 45 13 bc 05 ad 29 3e d5 f9 1f be
       -0.07582823 -0.00898868 0.16569908 -0.15622647
000110 df bd 68 bc 12 49 0a 3e 84 27 0d be 5b 55 a0 bd
       -0.014205425 0.13504437 -0.13784605 -0.0782878
000120 2a 4e 23 be c6 ef e9 3d 4f 29 58 3e 7c bf f5 3d
       -0.15947786 0.11422686 0.21109508 0.11999413
000130 9d f7 96 bd 12 da 7e be 43 34 5b bd 37 bd c1 3d
       -0.07371447 -0.24887875 -0.053516638 0.09459918
000140 65 5a d3 3d f2 0e b7 3d 64 b2 af 3c 95 81 1e 3e
       0.10319976 0.089383975 0.021447368 0.15479119
000150 92 32 3f be 96 8f 92 3c 70 35 2d bd ad 8e 27 3d
       -0.18671635 0.017890733 -0.04228729 0.04090755
000160 15 ef 67 3d 0b 66 3b 3e 8d 91 0d 3d 3e 80 a9 3d
       0.05662449 0.18300645 0.034562636 0.082764134
000170 92 a4 8d bd 69 8c 83 3e 12 f6 8b bd 38 76 d8 3c
       -0.06916155 0.25693062 -0.068340436 0.026423559
000180 93 91 c5 3c 90 fc ed bc 4c 58 e8 3d d1 51 ca bd
       0.024117267 -0.029051095 0.11344966 -0.098788865
000190 75 d7 08 3d 75 68 ec 3c a5 9c 0f 3e 9a a9 08 3e
       0.0334086 0.028858403 0.14024599 0.13345948
0001a0 a3 7a 8a 3e f5 38 c2 bc a9 84 09 be 72 91 0a be
       0.2704669 -0.0237088 -0.13429512 -0.13532045
0001b0 5c c7 06 be e0 95 51 bd cd 57 12 3e 2b 8e 8a bd
       -0.13161987 -0.051168323 0.14291306 -0.06765398
0001c0 8f d6 b1 3d 9b e2 39 3e 27 d8 85 3e 23 62 ad bd
       0.08683502 0.1815285 0.26141474 -0.08465984
0001d0 72 19 ae 3d 2c 45 38 bd ce 33 47 3e cd a5 11 be
       0.08500947 -0.044987842 0.19453356 -0.14223404
0001e0 76 e6 2b be 3e d8 4c bd 78 8b 92 bd e3 d4 d6 3d
       -0.16787133 -0.050010912 -0.07155508 0.10489824
0001f0 33 69 6c bc 08 26 97 3d b9 e2 72 bc 1a f6 ab bd
       -0.014429378 0.07380301 -0.014824563 -0.083965495
000200 16 dd 6d bc 4a d9 ed bd 13 d2 38 3e 72 62 eb 3d
       -0.014518043 -0.1161371 0.18048887 0.11493386
000210 68 1b ba 3d 4b a5 0c be 2c 0d 34 3d 58 6d 6c 3e
       0.090872586 -0.1373493 0.043957874 0.23088586
000220 7d 36 43 bd 80 61 d4 3d 47 3b 13 3e 01 2e 6a bd
       -0.047659386 0.10370159 0.14378081 -0.05717278
000230 ce 9e 15 3c e5 80 b8 bd 99 02 23 3d 01 4b 6a bd
       0.0091321 -0.0900896 0.0397974 -0.057200436
000240 7a ab 0f 3e ae 7b 77 3d 61 03 4a 3e 4a 1f da 3d
       0.14030257 0.060420685 0.19727851 0.10650499
000250 a1 15 cb 3d f6 d2 60 3e fa 34 b6 bd 8a f0 b7 bd
       0.09916235 0.21955475 -0.08896823 -0.08981426
000260 b6 6c 22 bd 3c 58 60 3e d9 4b bb bb 68 96 a1 bc
       -0.039654456 0.21908659 -0.005715829 -0.01972504
000270 fa c2 cf 3c 66 63 cf bd 39 82 16 bb 36 7f ae 3b
       0.025361527 -0.101263806 -0.0022965802 0.0053252233
000280 ea 5f 08 3e c8 ad d7 bd 51 bf 22 3e 87 63 aa 3c
       0.13317838 -0.10531193 0.15893294 0.020799411
000290 e9 e5 50 be de e4 18 be f2 45 1a 3c 6f c2 d8 3d
       -0.20400204 -0.14931056 0.00941609 0.1058396
0002a0 9d d6 52 3e 24 23 12 be 4b a1 0a be d4 f4 6a bb
       0.20589681 -0.14271218 -0.13538091 -0.0035851495
0002b0 0f 44 c0 bd aa 79 8b bd 1f e7 1c be e3 67 be bd
       -0.09387981 -0.06810315 -0.1532254 -0.092971586
0002c0 78 5f 8b 3d f6 22 72 3e 43 e0 46 3e ec a1 93 3e
       0.068053186 0.23646149 0.19421487 0.28834474
0002d0 ef 7d c2 3d dd 2a 56 bd ed 9c 58 be b8 91 b1 3d
       0.09496676 -0.05228697 -0.21153612 0.08670372
0002e0 9d c8 2c be cf 3b aa 3d 34 f7 44 3e ab 5a cd 3d
       -0.16873403 0.08312189 0.19234926 0.10027059
0002f0 6f bb 42 be c7 aa 11 be cd c5 5d 3e 88 b6 b3 bd
       -0.19016813 -0.14225303 0.21657486 -0.087750494
000300 f2 fa b3 bd 35 a3 32 3d 0c 1f 84 3e 55 3b 65 3d
       -0.087880984 0.043612678 0.25804937 0.055964787
000310 7f 87 9b bc a7 fa a0 3d a8 a7 39 bd 8e 77 3d bd
       -0.018985508 0.07860308 -0.045325905 -0.046256594
000320 88 38 75 bd ce f9 0a 3e 50 b3 02 3e b6 72 ce bd
       -0.059868366 0.13571855 0.12763715 -0.10080473
000330 51 92 07 3e d2 61 1e 3c 9e 76 10 3e 3e c7 e4 3d
       0.13239409 0.009666877 0.14107749 0.11170815
000340 00 db 28 3d 87 1e e1 3c d3 05 67 3d 5a af 3f 3e
       0.04122448 0.027480377 0.05640204 0.18719235
000350 52 99 db bc 04 ec 3b 3e 74 09 02 be 8d 57 cf 3d
       -0.026806507 0.18351752 -0.12698919 0.10124121
000360 bc 07 30 be 8d 12 41 3e 82 a5 13 3d 31 bf 69 be
       -0.1719045 0.18854733 0.036046512 -0.2282684
000370 81 a4 21 be 22 e4 f2 bd 2a 61 51 3e 02 d1 06 be
       -0.1578541 -0.11859919 0.20447221 -0.13165668
000380 eb 5a a2 3c 00 9d 91 3d 20 9e 67 bd 15 a1 12 3d
       0.019818744 0.071100235 -0.056547284 0.03579815
000390 00 81 29 be d3 13 1c be 8e 9e e2 bd ac 3e c4 bd
       -0.16553116 -0.15241937 -0.11065398 -0.09582266
0003a0 67 15 59 3d fb c8 47 be 64 95 35 be 68 17 b8 bd
       0.052998926 -0.19510262 -0.17732769 -0.089888394
0003b0 2c a7 2f be 09 5e 98 3d 97 3e cb 3c be 03 c2 3d
       -0.17153615 0.07439811 0.024810119 0.0947337
0003c0 1a f2 0b 3d 6e bc 2b 3e 02 32 bd 3c c7 1f a8 bc
       0.034166433 0.16771099 0.023095135 -0.020522965
0003d0 54 75 28 3e 07 bf 0d be af 86 99 bc de 77 c7 3d
       0.16451007 -0.13842402 -0.01874098 0.0973966
0003e0 31 16 1c be 5a 9a 35 be e2 dd 02 be c1 bf d6 3d
       -0.1524284 -0.17734662 -0.12779954 0.10485793
0003f0 81 ae d8 bd c1 16 0c be d4 ab 27 3e 0f cc 55 3c
       -0.10580159 -0.13680555 0.16374141 0.01304914

gru.bias_ih_l1 f4 [96]
000000 e1 fa 1a 3e 7d 15 0c 3e 6c 17 7c 3d 02 54 05 bd
       0.15134765 0.13680072 0.061545774 -0.03255082
000010 b5 4c 16 bd f8 29 19 3e 34 c0 cb 3d 99 cd 11 3e
       -0.036694247 0.14957416 0.09948769 0.14238586
000020 a0 ee 8f bd 49 22 1d bd 62 f4 33 bd 8b ab 09 3e
       -0.07027936 -0.038362775 -0.043934233 0.13444345
000030 1d 70 5f 3e ee 79 10 3e 13 18 34 3e f1 13 96 bc
       0.21820112 0.14109012 0.17587309 -0.018320056
000040 71 f0 37 3e 9f 01 bc 3d e0 fe a5 3e 28 5d 07 3e
       0.17962815 0.09179997 0.32421017 0.1321913
000050 1a 5e ee 3d 1c 8a a5 3d 25 94 06 bc 58 55 fc bd
       0.11639042 0.08082983 -0.008214031 -0.123209655
000060 78 aa 53 bd 80 c4 81 bd 53 98 c2 bc 30 61 0f bd
       -0.051676244 -0.063363075 -0.023754274 -0.035004795
000070 71 23 18 3e e3 e3 48 bd 35 64 4c 3e cb f3 13 3d
       0.1485727 -0.049045455 0.19960101 0.03612117
000080 03 dd 49 be 14 f6 1a be f5 95 73 bd e1 29 8a bd
       -0.19713216 -0.15132934 -0.059469182 -0.06746269
000090 2a 70 11 bd fa ad 08 be 40 f6 59 be ca 79 5d bd
       -0.03550736 -0.13347617 -0.21285343 -0.054071225
0000a0 97 c8 cb bd 7c 32 7c bd e5 e1 96 3d dd ff 01 bd
       -0.09950369 -0.061571583 0.07367305 -0.03173815
0000b0 db d0 75 be 99 5b 6f bc e0 97 3f bd 43 77 f9 3c
       -0.24005453 -0.014609241 -0.0467757 0.030452376
0000c0 a8 32 63 bd 4a 5f 4e 3d d9 bd 7d 3b 9e 2d a3 3d
       -0.05546823 0.050383843 0.0038717894 0.07967685
0000d0 aa b6 b0 3d 15 a5 76 bd b0 8c 49 3e 4c 7d 37 be
       0.086285904 -0.06021603 0.19682574 -0.1791889
0000e0 6c 0c 28 bd 38 a1 34 be 4f 8d 09 3e 7f ce 18 3e
       -0.04102747 -0.17639625 0.13432811 0.14922522
0000f0 78 c6 a6 bd f8 de 8a 3d e7 61 0b 3e 1a 1d 4d 3d
       -0.08143324 0.06780809 0.13611566 0.05007658
000100 f2 aa 91 3d 53 0b 72 bc 7b 70 44 bd aa ff e9 bd
       0.07112683 -0.014773208 -0.047958832 -0.11425717
000110 40 04 25 bd c9 45 a9 bb 31 0c 47 be b9 26 bf bd
       -0.040287256 -0.0051657897 -0.19438244 -0.09333558
000120 82 ff 2a 3e ff 73 71 3c bb d6 9e 3c e0 80 3f bd
       0.16699031 0.014737128 0.0193895 -0.046753764
000130 9d 68 0b be c8 b4 02 3e 90 6e 76 3d a5 62 72 bd
       -0.13614126 0.12764275 0.060164034 -0.059176106
000140 fc 54 b6 3d 2c ce 34 3e eb 93 17 3c 14 23 22 3e
       0.08902928 0.17656773 0.009251575 0.15833694
000150 9f ae 1a be ad 48 d8 bc 5a 2f f1 3d 29 a8 21 3e
       -0.15105675 -0.026401842 0.1177661 0.15786804
000160 ee ea bc bb f1 5d f5 bc 4d e7 ad 3c f1 69 cc 3b
       -0.0057653105 -0.029952021 0.021228457 0.006238215
000170 13 0d 17 be c9 3b 04 3e d9 d0 11 bd 85 a9 10 be
       -0.14751081 0.12913431 -0.035599563 -0.14127167

gru.bias_hh_l1 f4 [96]
000000 58 49 a6 bd 1c 8b 85 bd d6 e0 c8 b8 e6 04 93 3d
       -0.08119458 -0.06520674 -9.578622e-05 0.07178669
000010 1f 7e b9 3d 69 3c 54 bd a3 6c 10 bc 7f 5f 80 bd
       0.09057259 -0.051815424 -0.0088149635 -0.062682144
000020 7b 45 3c 3e 35 c2 e1 bd b6 37 c1 bd c5 91 87 3d
       0.1838588 -0.1102337 -0.09434454 0.066196
000030 7b ee 52 bd 72 2c 0b 3d 87 d8 77 3e ca 94 cd 3d
       -0.051496964 0.033977933 0.24203692 0.10038145
000040 fe 4f dc 3c 32 75 78 3a 11 ba ac 3c 60 b5 7f 3b
       0.026893612 0.00094779127 0.021084817 0.003901802
000050 61 e3 d3 3d c1 20 b6 3d 85 71 8f 3d 7d bd 4b 3d
       0.103461035 0.08892966 0.07004074 0.049741257
000060 50 81 56 bd eb d9 ca 3d 5c 1b 26 3e a1 f0 ba bb
       -0.052369416 0.09904846 0.16221374 -0.0057049547
000070 cb 27 48 3e ea ef 5e bc 50 62 a9 bd f3 3b 01 3e
       0.1954643 -0.013607005 -0.08270705 0.12620525
000080 ec a5 79 be 27 b0 4a be eb 08 b9 3c 57 cf 5d bd
       -0.243797 -0.1979376 0.02258726 -0.054152813
000090 9c bc 20 3c 73 35 fc 3d 29 9f 76 be 21 b5 e4 3c
       0.009810593 0.12314882 -0.24084152 0.0279184
0000a0 6a 00 fb 3d 4f b9 4c 3d bd 7b 00 3e 27 d3 e6 3d
       0.12255938 0.04998141 0.12547202 0.11270743
0000b0 c2 04 d2 bc 31 b5 35 3d 99 fe 14 be 22 58 95 bb
       -0.025637034 0.04436225 -0.14550246 -0.0045576254
0000c0 30 af aa 3d e3 0d 9a 3c 2d ab 2c 3d 67 33 87 bd
       0.083341956 0.01880545 0.042155433 -0.06601601
0000d0 52 e3 9c 3d a2 8e 63 be d3 18 2d 3d d3 a2 ca 3d
       0.076605454 -0.22222379 0.042260002 0.098943375
0000e0 51 b2 15 3e 8e cc 9d bd fd e8 f1 bd 49 27 f8 bd
       0.14618804 -0.07705031 -0.11812017 -0.12116868
0000f0 fe c9 b9 bc ca e3 70 3d 90 a7 06 3e 3a 3a 68 be
       -0.022679325 0.058810987 0.13149858 -0.22678462
000100 45 ba 18 3e cb f6 5e bc 56 de 11 be aa a1 1a 3e
       0.14914806 -0.013608645 -0.1424497 0.15100732
000110 24 b8 d7 3d 76 e5 8f 3d ec 0f 25 bd 5d c9 84 bd
       0.10533169 0.07026188 -0.040298387 -0.064837195
000120 df 22 0f be 54 ff dd ba 63 bc 7b 3a 5f 16 23 3e
       -0.13978146 -0.0016937056 0.0009602962 0.15926503
000130 86 9e 28 be 18 de 5d bb f6 fe 3e 3e c7 dc fb bd
       -0.16466722 -0.0033854302 0.18651947 -0.12297969
000140 34 39 bd 3b 3d 6d b4 3d 5e 98 91 3d 99 0f b4 3d
       0.0057746414 0.08809898 0.0710914 0.087920375
000150 5d 07 a9 3d 27 ac 07 be a2 6c 15 3d 26 34 86 bd
       0.082533576 -0.13249265 0.036480553 -0.06552915
000160 1a 45 f3 bc b5 61 14 3e aa 31 50 bd 7a 02 a4 3c
       -0.029696036 0.14490397 -0.050828613 0.020020712
000170 cf 04 4c 3e 4e d5 9a 3d ef 01 aa 3d 94 4a 6c bd
       0.1992371 0.07560216 0.0830115 -0.05768831
