src/model/trained/teacher_trained.pt (torch, 285195 bytes, 15 tensors)

conv.0.weight f4 [8, 1, 5, 20]
00000000: cfbc a1bd 1231 8fbc 9087 983a 1fe1 313d
00000010: 9920 82bb 5ea2 6dbd ab0e 86bd 97d2 0abd
00000020: 38ff 1b3d 129e 3fbd 7e6a ab3d bacc 713a
00000030: 55ce b83c 6a16 c53d 4d59 31bc dedf c93d
00000040: 94ec aabc d9aa fcbc 4780 713d c8ec 87bc
00000050: 2b48 95bd 4573 003c 791d e0bd 947a b8bd
00000060: 9f82 683c c4af 8c3d 2c91 5f3d b8dc 983d
00000070: 5aba 3c3d f7df d93c 9b9e 293d 8f7d 6abd
00000080: 63dc 303d ea41 ca3b dc49 a9bd e4b2 b13b
00000090: 2e16 d43c f206 ab3d b465 cebd c618 4e3d
000000a0: 0845 5bbd 6132 87bd 842d 5a3d 8be1 bd3c
000000b0: 09ae 01bc 38c3 4a3d 3b9b 973d 30c7 92bd
000000c0: 623e 583d 6b4e 7cbd 636e d9b9 8292 d4bc
000000d0: be28 e5ba 471b f4b9 8383 41bd 52ff 2abd
000000e0: b6b1 dd3d 2de1 d13d dea4 af3b c013 53bd
000000f0: 3ddf 03be cbda 87bd 93bb dabd f884 aebd
00000100: 52ad 1b3d 8aa3 97bd a65e f53c 56bb c0bc
00000110: 6760 d3bd 98bb 3ebb 3be4 53bd e95d dd3c
00000120: ff50 a83d 2db6 84bd 7bc0 a13d 4a1e f63d
00000130: e85b c93d ab01 e73d d629 343d 8bb7 d93d
00000140: b9b2 6f3d f447 afbd 01eb 62bd 57d8 26bd
00000150: a252 8cbd 196e bbbd 3357 77bd 41a4 81bd
00000160: 78f1 613d d2e1 94bd c869 43bb da5b a7bc
00000170: 32ca 613d e01f 31bd 606a dbbc 9152 153e
00000180: 9b29 e03d 07b8 9c3d b16d 983d cbbe 473d
00000190: 732f 753c 0fc7 9dbd f821 f5bd d82c 3b3d
000001a0: 0761 1fbd f617 333d 72e6 81bd 9b6b 7a3d
000001b0: 2bc4 0fbd 35de 8e3c 45cc 83bc fb31 973d
000001c0: 7ab5 47bd c487 3dbc 6824 d03c 175b cebc
000001d0: 9d53 633d a772 833d ddc9 8abc c922 973d
000001e0: 0b54 1abd 35db 39bd 9a48 eb3c 131c f43c
000001f0: 3f67 65bd 4616 2b3d a1c3 04bc 8d2d b7bd
00000200: ed0d b03d 7833 363c fe07 ad3b 6813 113d
00000210: ef4c 123d d20b b1bd 1cf8 a73d ab59 8ebc
00000220: 2650 b53d 7e2f 44bd 39f5 e7bc 57dd c53b
00000230: 7433 0bbc b142 c1bd b442 babd 90fd 88bd
00000240: b112 77bd a142 febc b615 26bd 5ef8 a53d
00000250: b969 f13d 96c1 c83b d93b febc 7994 b1bc
00000260: ad01 bd3d 3288 d23d e617 ffbc 888a 6b3c
00000270: a8a9 8c3a fd3e 993c 1b64 e03d 2139 d73c
00000280: f177 533d 47f3 003d 9122 f23c 2de3 c3bc
00000290: b24d fb3c e03c aa3c 58e2 9c3d dee0 283d
000002a0: 18ff 69bd bb84 a8ba ac19 a0bd 37a6 14bc
000002b0: ca7e 6f3c 2b11 46bb 4513 a53d 5a67 94bd
000002c0: e570 01bc 5e82 29bd d7d2 55bd 4646 5fbc
000002d0: 3994 f13c 0ba6 75bd 0205 6e3d 46f3 9b3d
000002e0: b32a 9b3d f7aa 8b3d efe6 483c ca29 adbd
000002f0: 66ee a6bd 09fe 573c fc36 a63d ff19 733d
00000300: 8721 f5bc 8d0e 63bd 76ad 27bd 3622 ba3c
00000310: 71c1 6abd 190e 553d e01d f03c bba4 debd
00000320: d100 0bbe 60fd c6bd 5a64 293d 2708 57bd
00000330: 4117 203d ae0f 7c3c 551b 973d 8f49 8e3d
00000340: 729b 9a3d de27 27bd 20e5 c03d fd22 303d
00000350: d898 9ebc 20cf b13d 2135 473d eaaf 8e3d
00000360: 59b7 b23d 90f7 8ebd 53fb 8cbc d2c9 e1bd
00000370: 6f95 dd3c 9ca3 cf3b 2131 533d ad52 a0bd
00000380: 562e 22bd af3b 8b3d e3a5 8ebd c9b4 4e3d
00000390: 6420 43bc 2a0f 0b3d 3f45 993c ddf3 0bbd
000003a0: 0eb7 e0bc d524 f63d 0298 87bd d215 e23b
000003b0: f2cb adbd ee3d 26bd c099 503d 287d 8c3d
000003c0: 65e0 eebc b5e7 7f3c 9a30 9f3c 85f4 a93d
000003d0: 1688 953d 21ff 8fbd 20ea f0bc 7d5f b3bd
000003e0: 6c24 79bd 2071 223d b0a4 5bbd 6ebf 46bd
000003f0: 3d4e 7d3d 24f3 afbd 411d a93a 03f6 5b3d
-0.078973405 -0.017479453 0.001163708 0.043427583 -0.003971171 -0.058016174 -0.065457664 -0.03389224
0.038085192 -0.046781607 0.08369921 0.0009223927 0.022559324 0.09623416 -0.010824514 0.098571524
-0.020864762 -0.030843185 0.058960225 -0.016592398 -0.072891556 0.007839982 -0.109431215 -0.09007755
0.014191299 0.06869462 0.054581806 0.07463974 0.046076156 0.026596053 0.041411024 -0.05724865
0.043178927 0.0061724083 -0.08266041 0.0054229368 0.025889482 0.08350934 -0.10077992 0.050316595
-0.05353263 -0.06601406 0.053266063 0.023178836 -0.007915028 0.04950258 0.07402655 -0.07166898
0.052793868 -0.061598223 -0.0004147171 -0.025948767 -0.0017483456 -0.0004655963 -0.04724456 -0.0417474
0.10824911 0.10248027 0.00536023 -0.051532507 -0.12878127 -0.06633528 -0.10680308 -0.085214555
0.038007088 -0.074042395 0.029952358 -0.023526829 -0.10321122 -0.0029103514 -0.05173133 0.027022319
0.08218574 -0.0648006 0.07898041 0.12017496 0.09831983 0.11279615 0.04398521 0.10630711
0.058520053 -0.08558646 -0.0553999 -0.04073366 -0.068516985 -0.09151859 -0.060385894 -0.06330157
0.055161923 -0.07269634 -0.002981769 -0.02042954 0.05512447 -0.04324329 -0.026784122 0.14582278
0.109454356 0.07652288 0.07442797 0.04876594 0.014964926 -0.07703983 -0.1196937 0.045697063
-0.03891089 0.043724023 -0.06342782 0.061137777 -0.03509919 0.017439941 -0.016088614 0.0738258
-0.048757054 -0.011568014 0.025407985 -0.02518992 0.05549966 0.064183526 -0.016941959 0.073796816
-0.037677806 -0.045375068 0.028721143 0.029798543 -0.056006666 0.04176929 -0.008103282 -0.08944235
0.08596406 0.01112067 0.0052804938 0.035418898 0.0357179 -0.08644833 0.0820162 -0.017376741
0.08853178 -0.047896855 -0.028315173 0.0060383487 -0.008496154 -0.094365485 -0.09094754 -0.06688988
-0.06032056 -0.03103763 -0.04054805 0.08104013 0.11787743 0.006126593 -0.031034397 -0.021677243
0.09228835 0.102798834 -0.031139325 0.01437629 0.0010731714 0.018706793 0.109565936 0.026272358
0.051628057 0.031482007 0.029557498 -0.023912037 0.030676696 0.02078098 0.07660359 0.041230075
-0.057128042 -0.001285694 -0.078173965 -0.009072832 0.014617631 -0.0030222635 0.08060316 -0.07246275
-0.007900451 -0.041384093 -0.052203026 -0.013627594 0.029489623 -0.059972804 0.058110245 0.0761476
0.075765036 0.06819718 0.01226209 -0.08455236 -0.0815094 0.013183125 0.08115956 0.059350964
-0.029923214 -0.0554338 -0.04093691 0.022721391 -0.057313386 0.052015398 0.02931112 -0.108712636
-0.1357453 -0.09716296 0.04135547 -0.05249801 0.039084677 0.015384598 0.0737826 0.06947624
0.0754918 -0.040809505 0.09418702 0.043002117 -0.019359991 0.08682084 0.048634652 0.06967147
0.08726377 -0.069808125 -0.017209684 -0.11024822 0.027048795 0.0063366424 0.051560525 -0.07828269
-0.03959497 0.06798493 -0.06965234 0.05046538 -0.011909578 0.03395001 0.018709777 -0.034168113
-0.027431037 0.12018744 -0.0662079 0.006899574 -0.08486165 -0.040586405 0.050927877 0.06859809
-0.029159734 0.015619208 0.019432355 0.082985915 0.07301347 -0.07031084 -0.029408514 -0.08758447
-0.06082575 0.039658666 -0.053623855 -0.048522405 0.061842192 -0.08591297 0.0012902395 0.053701412

conv.0.bias f4 [8]
00000000: b03d 37be b57a 5a3b 5baf 04be 42d7 863c
00000010: 741f 54bd c98a 38bc 8094 27be 3241 b73d
-0.17894626 0.00333373 -0.12957518 0.016460065 -0.05178781 -0.011263558 -0.16365242 0.08947982

gru.weight_ih_l0 f4 [192, 144]
00000000: 3ba1 eb3c 8f46 e73c 44b8 a43c 0fe1 e6bd
00000010: 2ace 2fbd f404 06be 60bd f1bd 7823 aa3d
00000020: ad3f 853d 7353 d73d 95ba 9ebd a74e 48bd
00000030: bf64 febd 11ec 73bd 309d c1bd 7ef8 a83b
00000040: ff1d 30bb ff4a a3bb 77ed d1bd eba3 4dbe
00000050: 8a65 93bd 8b42 27bd 9c9b 5d3d 4ea8 81bd
00000060: d19a a03c 45e2 043d 728e 463d 4c3f 24bd
00000070: 3624 a7bc 3dc3 02be ebc6 ce3d d2ea 77bd
00000080: 7845 87bd 86cd 123c 097c 9f3d f665 fdbd
00000090: d6a4 6f3d 054e 3a3e 0504 733c 4bce ef3b
000000a0: b19f e33c 266f 903d b48e 90bc dc19 613d
000000b0: ce8f ebbd c3b7 943d aefc a7bd c35e 60bd
000000c0: 74d0 f7bd c6db a3bd 69ca 47bd a08e 69bd
000000d0: a60e 1cbc d5b9 503c a57f fd3c 07d8 70be
000000e0: daed f6bd 05db 0abd 22df 9a3d ae14 af3d
000000f0: e8a6 afbd 36e3 983d 33d9 82bd 8396 d8bd
00000100: 6fb5 dc3d f298 f63c 5b96 eebd 335c dc3b
00000110: 677b e1bd d6a1 7e3d d03d 1ebd 80f7 843d
00000120: 18f5 41bd 98d6 1a3e 62fb 4b3d 4e40 253d
00000130: 1824 073d 69fc 02be 153c 9b3d f0af 923d
00000140: 7f77 db3d dc51 b23c e396 463d c808 1d3d
00000150: ceb7 f1bd 53ff 7fbd abfa 99bc 7381 1f3d
00000160: 3443 fe3c 957f 013d b8fc dbbd f2a7 86bd
00000170: c90c e23c cd86 2ebd aa44 bfbb c4d5 d2bc
00000180: 492a da3c 8b09 d33c 18ee 18bd 3c39 8cbd
00000190: b979 eb3d 00cb bd3d 335c 313d c48d da3c
000001a0: 69a0 e8bc 8599 84bd f250 cb3b 8b49 8fbd
000001b0: 45a9 86bc ec30 d4bd 6843 c7bc b1fa 013e
000001c0: 4e20 a23b 91e0 b4bd 23dc a83c 8932 0d3d
000001d0: 8516 5ebc cb8f 853d f628 5dbd 7f6d ccbd
000001e0: bf50 94bc 7da9 e73c a95f a0bd fd6b fabd
000001f0: d4c4 44bb adb0 8abd 9ee9 02be 7609 ecbd
00000200: 7425 c2bd 4163 23be b2bb 8d3d 524a 1c3e
00000210: 6aec 9a3d c8b7 603c 2e64 d93d 03e9 81bd
00000220: d845 9bbd 124a 1f3c f52e dd3c 946c 213d
00000230: 42bc c93c a938 36bd d90a 73bd 997e bebd
00000240: 120e 83bd eadf 773d 0547 743d ea42 263c
00000250: a20f cd3b 6b6c e33c eb9d 223c ef95 18bc
00000260: 4347 4abd 696c 2abd 2b2e 3fbd d73c 7cbb
00000270: 1aba d53d ca8e b73c 606e 13be 0982 b23c
00000280: 3cf7 eabb 8a68 a1bd d991 b83d e5f6 013b
00000290: ca1e 183c d295 383d 71cf 92bc 2d76 56bd
000002a0: 2905 893d d53c cebd f889 6e3d cd39 d53c
000002b0: 6677 8fbd 6328 68bc ed17 9fba e706 13bd
000002c0: f781 a6bd bcfc b3bc dd3d 473d 09a1 ab3d
000002d0: bdfb 133d ccd9 82bd 265a 2b3d 3975 703d
000002e0: 2c44 87bc fc6c 843c 711a f53b 4b9f b63d
000002f0: 9376 16bd 8a79 b33c 1edf 143d 8b13 bebc
00000300: 3052 ee3d 51d7 433e 5e85 743d e695 8dbd
00000310: 062b cd3c a40f d33c ccd4 9e3d 61ab 89bc
00000320: 38b3 f8bc 4c78 143e f820 053e 6c67 1e3d
00000330: 435d a6bd 8ac3 7c3d c2a7 7d3d b689 44bd
00000340: f962 b93c b94a 173e d499 b03c a65e e2bd
00000350: ad1a 0bbe f48b 5a3c 4069 69bd 8429 efbd
00000360: 6ed2 983c cc87 2f3d 0918 f23b daef 5f3d
00000370: 6187 b2bc 8209 303d 95b9 e93d fab7 8e3d
00000380: 2e53 9cbd 3b77 22bd 2ebb 98bd b9fc 93bd
00000390: aba5 873d 1494 91bc 2fa2 babd cc1b 893d
000003a0: 81d2 2d3d 5e27 dcbc 96be c1bc 96cd 17bd
000003b0: 8641 273e f5bd b03d 5218 0c3e 55c5 f23d
000003c0: ecf0 46bd 1542 db3d 08ab b73d 670c 0c3d
000003d0: 36d0 f33d 43bb de3d 53cb 76bd d8d4 c4bd
000003e0: cc69 0abd 2ab0 61bd 20f8 ebbd e8e7 05be
000003f0: e8e4 0e3d c100 0bbd dcb9 a1bc ee55 09bd
0.028763404 0.028231887 0.020107396 -0.11273395 -0.042921223 -0.13087827 -0.118036985 0.083075464
0.06506286 0.105139636 -0.077504314 -0.048903134 -0.124215595 -0.059551302 -0.09453809 0.0051565757
-0.0026873348 -0.0049833055 -0.10250371 -0.20082061 -0.071971014 -0.040834945 0.05410348 -0.0633093
0.019605072 0.03244235 0.04847569 -0.040099427 -0.020403009 -0.1276979 0.10096534 -0.060526676
-0.06605047 0.008960133 0.0778733 -0.12372963 0.05850681 0.18193825 0.014832501 0.007318293
0.027786108 0.0705245 -0.017646171 0.054956302 -0.11502038 0.07261612 -0.08202492 -0.05477787
-0.12100306 -0.08000903 -0.048777018 -0.057020783 -0.009524977 0.012739618 0.030944655 -0.23519908
-0.12057085 -0.03390028 0.075620905 0.08548866 -0.08576757 0.07465212 -0.06389084 -0.10575583
0.10776793 0.030102227 -0.11649772 0.006724858 -0.11009865 0.062166058 -0.038633168 0.064925194
-0.04735288 0.15120924 0.049800284 0.04034453 0.032993406 -0.127916 0.07579819 0.07162464
0.107161514 0.02176755 0.04848374 0.038338453 -0.11802636 -0.062499356 -0.018796286 0.03894181
0.031037904 0.031615812 -0.10741562 -0.06575002 0.027593987 -0.042609025 -0.005837043 -0.025736697
0.026631491 0.025761386 -0.03733644 -0.06846854 0.11497826 0.09267235 0.04330082 0.026678927
-0.028396802 -0.06474594 0.006204718 -0.06996449 -0.016438136 -0.103608936 -0.024324134 0.12693287
0.0049476987 -0.08831895 0.020612782 0.034472022 -0.013555174 0.06521567 -0.05399414 -0.09981822
-0.018104909 0.02827906 -0.07830746 -0.122276284 -0.0030024545 -0.067719795 -0.1278443 -0.11525242
-0.094798 -0.15955831 0.06920566 0.15262726 0.07564624 0.013715692 0.10614811 -0.063432716
-0.07581681 0.00972225 0.02699993 0.03941019 0.024625901 -0.04448763 -0.059336517 -0.0930149
-0.06399168 0.060516275 0.059638042 0.0101477895 0.006257967 0.027761659 0.009925346 -0.009313091
-0.049384367 -0.041607294 -0.04667489 -0.0038488412 0.10435887 0.022406954 -0.14397573 0.021790521
-0.007170586 -0.07881267 0.09012193 0.0019830998 0.009284684 0.045064755 -0.017921181 -0.052358795
0.06690437 -0.100701965 0.058237046 0.026028538 -0.07005195 -0.014169785 -0.0012137868 -0.035895254
-0.081302576 -0.0219711 0.04864298 0.083803244 0.03612875 -0.06389198 0.04183402 0.058705542
-0.016512 0.016165249 0.0074799587 0.089171015 -0.036734175 0.02190854 0.036345594 -0.023202678
0.1163677 0.19125105 0.0596975 -0.069133565 0.02504493 0.025764294 0.077554315 -0.016805353
-0.030358896 0.14499015 0.13000858 0.03867285 -0.08123257 0.061709918 0.061927564 -0.047982894
0.022630202 0.14774598 0.021557726 -0.11053209 -0.13584395 0.0133390315 -0.05698514 -0.1167784
0.018655028 0.042854115 0.007388119 0.0546721 -0.02179307 0.042977817 0.1141235 0.069686845
-0.07633053 -0.03966449 -0.07457577 -0.072259374 0.066233955 -0.017770804 -0.09112965 0.06694755
0.04243708 -0.02687424 -0.023650449 -0.037061296 0.16333589 0.086299814 0.13681152 0.11854044
-0.048569605 0.107059635 0.089681685 0.034191515 0.119049475 0.10875561 -0.0602525 -0.09610909
-0.033792302 -0.055099644 -0.115219355 -0.13076746 0.03488627 -0.033936266 -0.019741945 -0.033529215

gru.weight_hh_l0 f4 [192, 64]
00000000: 6e39 cbbc cce5 df3c 5d43 20ba 1250 eebc
00000010: 5454 a73d b389 303d d227 a7bd c9f8 39bc
00000020: 4474 003d a0ea f0bd 03df 2e3e 6f3e 0e3e
00000030: 1fd4 f23c c02c 163e 904b e13d 6079 2bbc
00000040: fbdf 8fbd 96d0 0abd f883 dcbd 88ad a83d
00000050: b1af f03c 9e48 663c bb62 b93d d629 a63c
00000060: 69c5 293e 5713 193d 2722 90bd 451b a03c
00000070: cefb 3ebd 9fd3 35bd c643 0d3b c680 8c3d
00000080: 0272 dbba b24a ab3d 8e7f 53bd 73f5 2f3b
00000090: 6e73 b73d 1c95 a4bc be6d 4ebd da58 813d
000000a0: 25bb 803d 6017 293d 6274 4e3e bcf2 663a
000000b0: b464 823c c45c 85bd ebf4 89bd 99b1 6a3d
000000c0: 96bc 4abd b322 ff3c a18d ed3d a32c 67bd
000000d0: 2e68 1d3e b9df 9e3d 4f1d 2b3d 5d8b 58bd
000000e0: 021f c93c c913 5d3c 1205 cf3d c78b 83bd
000000f0: d383 6ebd 1905 e7bb 55a8 623d 332c 863d
00000100: cd5b 5a3d 098f 9c3c fdbd 47bd 51e6 0fbd
00000110: 7ea3 30bd 7353 26bc 66aa 89bb acd6 783b
00000120: 9757 92bc 6829 603d 79f0 fdbc a0b7 1c3d
00000130: c665 453d 88cb fbbc c188 6c3d 9fe1 f9bc
00000140: 2eb1 033d 80a8 863d 74bd 7c39 cfca e4b8
00000150: 761c 353c 40c6 033d 356f 3c3d e5a8 84bb
00000160: 18e7 8a3d 8e53 c43d 8dbf 19bc 2cbd 433d
00000170: 21de 8a3d 6a78 68bd f0f5 c5bd bb35 983c
00000180: d954 cfbc ab27 603c 2978 933d 92db 893c
00000190: 4950 3fbd b713 37bd 88bf 3fbd 8bde e1bc
000001a0: df26 ba3d 708a b03d ad12 a0bd 3c43 84bd
000001b0: 4a9c 17bd 8d15 6a3b 87a0 913d e451 873d
000001c0: 17a8 35bd 690a 1f3d 3a62 2a3b 522e 17bd
000001d0: f13d 0e3d 9fe9 91bc f843 adbd 9a9b 6fbd
000001e0: b281 c13d 26cf 3ebd 1c59 d8bc d666 3e3d
000001f0: 2e38 1dbd f89f 413d dcb4 66bc 62b5 3fbd
00000200: 8946 483d 0c4c 1ebd 257f 923d cdc9 2e3d
00000210: c29e 29bd bd01 41bd afeb a73b dc10 0b3c
00000220: 73bc f6bc 3016 3dbd af98 45bd bd5c bc3c
00000230: d10b 4d3d 45d6 c43d f4cd 8a3c 99ae c23d
00000240: 8936 993d 77ba dd3d 95e2 873b cd6e ad3d
00000250: d6c9 a4bd fb89 803d 9186 323d cb77 b63d
00000260: abd5 9e3d 7e78 253d 3e49 c33c 2817 333d
00000270: 1dd7 acbd 2221 4dbd 32e4 bd3d c24f 523d
00000280: 469e 0b3c 8e69 eabb c784 bdbc 9d39 a73d
00000290: 6f56 c63d c9bb 133d 2a2f 6dbb f129 013e
000002a0: 98e7 913d e97f a63d d8b1 c43d 8376 023d
000002b0: 583a a43d a8df 533b 55f5 5a3d 5d01 8a3d
000002c0: fcd8 a9bd 931b 1dbd 9ea2 aa3d 6ee8 2dbd
000002d0: da3c ff3b 22d4 42bd a7e8 9b3d 9422 bb3b
000002e0: 22f3 f6bd ad27 193d 271b 823d 4d0a d83b
000002f0: 8e99 b43c 879e bfbc 2deb a9bd b5e8 d73d
00000300: 6a12 d73d 563e 9abc c534 a5bd ee58 7abc
00000310: 7cdb 38bd dbf3 e63c a4a9 c23b e2f4 43bd
00000320: 234c 013e 2ac5 8a3c fe68 b8bb 291a a43d
00000330: 6d44 163d 4d14 7abc d385 7bbd e285 f9bd
00000340: 7aec 963d 2566 d8bb d462 41bd f331 893c
00000350: 3edf 6bbb 6ac6 87bc 0b3a 97bc 782b adbc
00000360: 6b98 86bd e874 49bc 5b51 c43c ac4a ca3b
00000370: a916 dbbd 9951 4e3d 420f a0bd 4e6a c9bc
00000380: 74c8 013c 689f 953d cc96 613d e2bd 143c
00000390: e012 613d 12e9 efbc e60b f3bd 8136 15bd
000003a0: 497a e83c f0cd 973d cbb8 4ebb 8568 043e
000003b0: 40f7 a9bd 0695 963d 5686 34bd c26b f5bc
000003c0: aa92 ba3b 604f 403d 9771 ae3b e9b9 863c
000003d0: 0c1e 24bd 1b2f a73b 909d 11bd 0873 123d
000003e0: d6bc ae3d b51c 9c3d a67e 15bc 67d1 a8bc
000003f0: 6af3 e7bc 580b febb 523b 80bb c6ec 983d
-0.024807658 0.027331255 -0.00061135535 -0.029090915 0.08170381 0.04310007 -0.08161892 -0.011350819
0.03136088 -0.11763501 0.1707726 0.13891004 0.029642163 0.14665508 0.110007405 -0.01046595
-0.07025143 -0.03389033 -0.107673585 0.082362235 0.029380651 0.014055399 0.090520345 0.02028362
0.16579212 0.03737196 -0.07037764 0.019544253 -0.04662686 -0.04439127 0.0021555289 0.06860499
-0.0016742351 0.083638564 -0.051635318 0.002684918 0.08957563 -0.020090632 -0.050397627 0.06315775
0.06285695 0.041282058 0.20161584 0.0008809974 0.01591716 -0.06511834 -0.067361675 0.057298277
-0.049496256 0.031144476 0.11599279 -0.056439053 0.15371773 0.077575155 0.041775998 -0.052867282
0.024550918 0.013493487 0.10108389 -0.06423145 -0.058231186 -0.0070501682 0.055336315 0.06551399
0.053310204 0.019111173 -0.04876517 -0.035131756 -0.04312467 -0.010151732 -0.0042012213 0.0037969751
-0.017864032 0.054726988 -0.030998455 0.038261056 0.04819276 -0.0307367 0.057747606 -0.030503092
0.032151394 0.065751076 0.0002410317 -0.00010909663 0.011054149 0.032171488 0.046004493 -0.004048454
0.06782359 0.09586249 -0.009384048 0.04778783 0.06780649 -0.05675546 -0.096660495 0.018580308
-0.025309013 0.013681333 0.07200653 0.016828332 -0.046707425 -0.044696536 -0.046813518 -0.027571937
0.09089445 0.08620155 -0.07816062 -0.064581364 -0.037014283 0.0035718412 0.07110696 0.06607416
-0.044349756 0.038828287 0.002599849 -0.03690941 0.03472704 -0.017811595 -0.0846023 -0.058498003
0.094485655 -0.04658427 -0.026409678 0.04648479 -0.038383655 0.0472717 -0.014081206 -0.04680384
0.048895393 -0.038646743 0.07153157 0.04267292 -0.04141117 -0.0471208 0.005124531 0.008487906
-0.030119156 -0.046163738 -0.048241314 0.02299344 0.050060097 0.09611181 0.01694391 0.09505958
0.07481105 0.10826581 0.0041468837 0.08468399 -0.0804631 0.06276318 0.043585364 0.089095674
0.07755598 0.040398113 0.023838636 0.043723255 -0.08439467 -0.050080426 0.092720404 0.051345594
0.008521622 -0.0071536964 -0.023134602 0.08165286 0.09684455 0.036067758 -0.0036191442 0.12613656
0.07124251 0.08129866 0.096042335 0.031851303 0.08018941 0.0032329354 0.053456623 0.06738541
-0.082933396 -0.038356375 0.08331798 -0.04245799 0.0077892365 -0.047565587 0.07612734 0.005710909
-0.12058093 0.037391353 0.06352835 0.006593025 0.022045877 -0.023391021 -0.08296809 0.10542432
0.10501559 -0.018828552 -0.080667056 -0.015279992 -0.04513119 0.028192451 0.005940633 -0.04784096
0.126267 0.016939718 -0.0056277504 0.08012802 0.03668635 -0.015263629 -0.06140692 -0.12183739
0.07369323 -0.0066039735 -0.04721339 0.01674745 -0.0035991217 -0.016574103 -0.018460294 -0.021138892
-0.0657204 -0.012295939 0.023964575 0.0061734524 -0.106976815 0.050370786 -0.0781541 -0.024586823
0.007921327 0.07305795 0.05507545 0.009078475 0.05494964 -0.029285941 -0.11867504 -0.036428932
0.028378623 0.07412326 -0.003154325 0.12930496 -0.08299112 0.07352643 -0.044073425 -0.02995861
0.0056937532 0.046950698 0.0053235996 0.01644607 -0.040067717 0.005102051 -0.035550654 0.035754234
0.08532111 0.07622663 -0.009124434 -0.020607663 -0.028314311 -0.007752817 -0.0039133215 0.07467036

gru.bias_ih_l0 f4 [192]
00000000: aac8 503d 482e 233d bde1 ef3d 7d2f 273d
00000010: e12a 78bc 9ba9 c13d b739 79bd fb7a 4fbc
00000020: b7bb 423d ee4b bd3d 8457 76bd 9a97 023e
00000030: 7ee1 56bd 7318 d33c 1968 2ebb 0d39 633d
00000040: bd30 d3bc f3f9 8a3d 0e3e 003e ac6f 203d
00000050: 5f88 a6bd 2002 4a3c e213 91b9 4389 6b3c
00000060: 95b5 ef3b 848f 83bd 90ce ca3d b2c8 b13d
00000070: 640c 36bc 563e af3c 32ea bc3d 4b15 523d
00000080: a5bb 863b 8fcc 2f3b ff23 8f3d bbbf 4e3c
00000090: 0701 6c3d b9e0 193c 9acb 91bc 8504 cabd
000000a0: 0e4d e23d 9d75 973d 6dbc ae3d 1916 1b3d
000000b0: aced bcbc f3df 6bbc d7ac 663d de22 d0bd
000000c0: bee1 cebd 0a0b 16bd 6391 cc3d 8716 eebb
000000d0: 6c1f 99bb 7b31 ff39 e8e7 2bbc a8fd 5f3c
000000e0: 2e18 bc3a 09f9 3b3d d302 003e 38cb b03d
000000f0: 3a0c 843d 4231 df3c ac46 dd3d 3c9f 4ebd
00000100: e35c 093c 5b57 a2bc 5c0c 12be 994c 66bd
00000110: 8592 7cbd acbd a2bc 2d08 9bbd f5e8 88bd
00000120: 2100 48bd c3f6 1cbd 8663 7f3d 174b 05be
00000130: 6cd8 bd3c c2d8 89bc e1ca 863d fbf6 92bc
00000140: a36f 13bd 65f7 28be 8b19 e6bd fa7e 4e3e
00000150: fab0 dbbd 522a b5bc 884b b43d 5266 893d
00000160: 921b 4a3d 94cc dabd 6e7f 233d a253 1f3c
00000170: 5269 ec3c 9584 9b3c 08c4 7b3b cf12 97bd
00000180: 36ba dc3d 88bc c73d c801 673d 9ee9 143d
00000190: b06d ca3c 49e9 67bd d26c 44bd 4810 0c3e
000001a0: 6d52 76bd e9ab 07be 94c8 34be 8d93 c1bd
000001b0: 1c34 123d f35e df3d 50b2 6a3d b136 073e
000001c0: 196b 16be d151 12bd f2a0 93b9 4552 6abd
000001d0: cbd1 b03d 876b 6bbd 7adf adbd 80c4 febd
000001e0: 4182 60bd 49d3 dd3c be01 25be 95c2 a73d
000001f0: cfe0 713d 62b4 25bc 5e10 25be ae82 d1bc
00000200: e6d0 153e 119b 103d c7d5 afbc b750 313a
00000210: 538e f43d cda6 31bd a2d8 9d3d 86d3 94bd
00000220: 1049 bfbd bf23 edbb a718 b9bb a130 1ebd
00000230: b35f c6bd d2c4 a8bd 0957 11be cab6 e7bc
00000240: 5889 423d ab1d 883d bf15 c3bd 7416 e73d
00000250: 00f5 533c 7438 2e3d 54ef 123e 0e31 1c3d
00000260: b933 f33d 6314 0e3d d58a 013e 10cc 4bbd
00000270: 1de0 843d 8cc6 19be 1521 b93c beec 83bd
00000280: 99d5 c53d 0732 033e cf4d 83bd c143 0e3e
00000290: 74a8 253d 2274 553e 666b 183e 3dcf 7ebc
000002a0: 32d1 30bd d767 3c3d 4001 ee3d 116d 2f3d
000002b0: 0466 de3d 8a1b 04bc 165c c33d d48e 7a3d
000002c0: 9003 b0bc 21b9 51bd 830b ee3d 05bb 003e
000002d0: bd1e b73d c8fb 213b 5a9f c9bd 937a 2dbd
000002e0: 36cb 0cbe e879 203e 3b17 16bd 8f1c 133e
000002f0: c777 19bd b940 d9bd 52be bfbd 0a26 b2bd
0.05097262 0.03983906 0.11712978 0.040816773 -0.015146942 0.09456178 -0.060846057 -0.012663598
0.0475423 0.09242998 -0.060142055 0.12753144 -0.05246114 0.025768494 -0.002661234 0.05547433
-0.025780076 0.06785955 0.12523672 0.039169 -0.081314795 0.012329608 -0.0002767137 0.014375987
0.0073153474 -0.06423858 0.0990268 0.08680858 -0.011111353 0.021392029 0.09224357 0.051289838
0.0041117244 0.0026824807 0.069892876 0.012618954 0.057618167 0.009391957 -0.01779728 -0.09864143
0.11049853 0.0739548 0.08532033 0.03786287 -0.02306255 -0.014396655 0.056317177 -0.101629004
-0.10101651 -0.03663162 0.09988668 -0.007265869 -0.004672935 0.00048674256 -0.0104923025 0.013671316
0.0014350468 0.045891795 0.12501077 0.08632511 0.064476445 0.027245168 0.10804495 -0.050444826
0.008383962 -0.019817045 -0.14262527 -0.056225393 -0.06166317 -0.019865833 -0.07569919 -0.06685058
-0.048828248 -0.038321268 0.062350772 -0.13016926 0.023174487 -0.016826991 0.06581665 -0.017940035
-0.035995137 -0.16500624 -0.11235341 0.20165625 -0.10727115 -0.022114906 0.08803469 0.06708969
0.0493427 -0.106835514 0.03991645 0.009724529 0.028858814 0.018984118 0.0038416404 -0.07376634
0.107777044 0.09752756 0.056398183 0.036355607 0.024710506 -0.056618962 -0.04795534 0.13678086
-0.0601372 -0.13249172 -0.1765464 -0.09451971 0.035694227 0.10906782 0.05729896 0.13204457
-0.14689292 -0.035722557 -0.00028157939 -0.057207365 0.08633765 -0.057475593 -0.084898904 -0.12439823
-0.05481172 0.027078288 -0.16113946 0.081914105 0.059052285 -0.010113807 -0.16119525 -0.025575008
0.1463047 0.035304133 -0.021464242 0.00067640416 0.11941209 -0.043371964 0.07707335 -0.072669074
-0.093401074 -0.0072369273 -0.0056486907 -0.038620595 -0.09686222 -0.082406655 -0.14193358 -0.028285403
0.047494262 0.06646284 -0.09525632 0.112835795 0.0129368305 0.042534307 0.14349109 0.03813272
0.118751 0.03468741 0.12650616 -0.049755156 0.06488059 -0.15017146 0.022598783 -0.06441639
0.09659881 0.12812053 -0.06411325 0.13893034 0.040443853 0.20845082 0.14884719 -0.015552339
-0.043168254 0.045997467 0.11621332 0.042828623 0.10859302 -0.008063206 0.095390484 0.061171368
-0.021486074 -0.051201943 0.116232894 0.12571342 0.0894141 0.0024716724 -0.09844847 -0.042353224
-0.13749394 0.15671504 -0.036643248 0.14366363 -0.037467744 -0.10608048 -0.093624726 -0.086986616

gru.bias_hh_l0 f4 [192]
00000000: 563e e8bb f440 7cbd 54ef cd3c 0801 8a3d
00000010: 3710 2f3d 7101 a43d 1945 753c f59f 3f3d
00000020: 56b2 443d 4608 b8ba b52d dabc 7610 e93d
00000030: 8f31 9abd 8209 9c3d 11df c43c f478 9cbd
00000040: 3aaf d53d 140c c03d 9b32 39bd 2cfe 9d3d
00000050: 4bc3 363d 6d71 e33c 581c 03bd 7c9d c73c
00000060: dd71 3ebd 01ae f6bc cb1b 5a3d f3ad ebba
00000070: 957e 87bd 8399 63bb 4708 b43b 4aeb ee3c
00000080: a43a b9bd f838 9abd 5f1b c13d 6527 b23c
00000090: 8f37 663d 8887 00bd 19b7 cfba b16b 31bc
000000a0: de19 5e3c 59e9 093d b23b 24bd 6576 2e3d
000000b0: c671 833c 929e e8bc 69df 83bd f081 aebd
000000c0: 32d8 97bb d912 ba3d 6fc6 193e 04d3 6ebd
000000d0: 9370 a1bb d6bd 6ebd a0a0 c53d a43a bdbd
000000e0: bad6 d5bc af16 11bd 9390 c63c 444d c1bb
000000f0: 0bfd 523d 2d8d ff3c 155f bfbc d9bf f33d
00000100: ac32 20bd 68f8 1f3c dda7 25bc 39f8 82bd
00000110: 1352 953d 6dba 0bbe 8414 073d dd71 b13d
00000120: 1206 04bd 45c3 a4bd 8ee4 40bd 852b 1abd
00000130: 5427 073e 11b3 d5bd ff8c 9c3b 49ce 1d3a
00000140: 419b 1a3e 1724 2ebd a2e1 84bd 2375 213e
00000150: 8372 c3bd 58eb 1d3e 66c4 4abc d260 993d
00000160: 1fde 4e3d 3f1f ef3c b781 e53d 8846 993a
00000170: fb63 1abd 3280 f43c f974 c9bb 20be 133e
00000180: 28ce 0cbd 5ca7 ef3c 7593 34bd 540f 1a3e
00000190: cb21 1a3d ace6 24bd a8fd 5a3d 7531 803d
000001a0: 3842 273d c4b1 87bd 42df c6bd c2af 65bd
000001b0: b532 a33c 13f2 ab3d 38f5 773d 3ca5 2f3e
000001c0: 5a21 95bd 23e3 cdbd e136 49bd f796 c3bc
000001d0: 359a e3bd cc83 3f3b fe2e 95bd 740b 943d
000001e0: b5e0 0dbe 5508 42bc db7c cdbd 36fe 403a
000001f0: 600e 903d 9d91 0a3e 288e ebbd a865 c8bd
00000200: 7789 a73d 3760 aa3d 5535 1d3d 6836 8cbc
00000210: 9dd5 fd3d cf15 bf3d 7369 3b3d bc6c c73d
00000220: 67f7 2cbe 7940 8ebd bae4 cf3d 1387 1a3e
00000230: ef56 3f3e cd2f 0dbd 854a 08be b612 9abd
00000240: edfd 27be e550 ccbc 2894 98bd 2040 083e
00000250: 1256 503e b4b3 683c ddeb 043d a6b7 093e
00000260: 3a27 ae3b 1162 0fbe 2d77 c5bb 99f4 0dbe
00000270: 15d6 c83d e8c3 02be aba8 c33d c224 66bd
00000280: a3f7 303d 6a38 be3d 60d7 f1bd 48f6 bbba
00000290: 7374 b53d 15f9 213e 3aef 1a3d 24fd 25be
000002a0: 4181 033d 1d02 6c3d 9bd1 003e 5add a0bd
000002b0: 5f04 e5bd baea bb3c c81b 4cbe 7353 323e
000002c0: c8e9 123c c75f 02be 009f 823e 8bf2 143e
000002d0: 308c 143e 976e 4abe aa65 ce3d c791 233e
000002e0: 7b5c 9ebe 3f3a 393e a067 40bd e389 3c3e
000002f0: 54a4 033e 95e6 60bd 57b6 4cbe 36b0 e93d
-0.007087509 -0.06158538 0.025138535 0.06738478 0.042740073 0.080080874 0.014970087 0.046783406
0.048021637 -0.0014040552 -0.026633123 0.11380093 -0.07528984 0.07619001 0.024032148 -0.076402575
0.104338124 0.09377304 -0.045214277 0.07714495 0.04461984 0.027764047 -0.032009453 0.024367087
-0.046495307 -0.030112268 0.05324916 -0.0017980918 -0.066159405 -0.0034728951 0.005494151 0.029164929
-0.09044388 -0.07530397 0.09429049 0.0217473 0.05620533 -0.031379253 -0.0015847414 -0.010828898
0.013555972 0.033669803 -0.040095992 0.04259338 0.016045462 -0.028395925 -0.064390965 -0.08520877
-0.004633927 0.09085626 0.15017103 -0.05830671 -0.00492675 -0.05828651 0.096497774 -0.092397004
-0.026103366 -0.035422023 0.02423886 -0.0058991034 0.05151085 0.031195248 -0.023360768 0.119018264
-0.039110824 0.0097638145 -0.0101108225 -0.06395001 0.07291045 -0.13645335 0.03297855 0.08664296
-0.03223235 -0.08045057 -0.047092967 -0.03763916 0.13198596 -0.10434545 0.00477755 0.00060198136
0.15098287 -0.042514887 -0.064883485 0.1576734 -0.09543326 0.15421808 -0.012375927 0.0748917
0.0505048 0.029189704 0.11206382 0.0011693994 -0.037693005 0.029846285 -0.0061479774 0.14427996
-0.034376293 0.029254608 -0.04408594 0.1504491 0.037629884 -0.04025905 0.05346456 0.06259433
0.040834635 -0.06625703 -0.09710552 -0.05607582 0.01992164 0.08395781 0.060536593 0.17152876
-0.07281752 -0.100530885 -0.049124602 -0.023875697 -0.11113397 0.0029222844 -0.07284354 0.07228747
-0.1385525 -0.011842807 -0.1003358 0.0007362099 0.07033992 0.1353211 -0.115017235 -0.097850144
0.08180516 0.08319133 0.03838094 -0.017115787 0.12394259 0.093303315 0.04575486 0.09737536
-0.16891252 -0.06945891 0.10151048 0.15090589 0.18685506 -0.034469415 -0.13309677 -0.075231
-0.16405459 -0.024940917 -0.074501336 0.13305712 0.20345333 0.014203001 0.0324515 0.13448963
0.0053147348 -0.14002253 -0.0060261698 -0.13862838 0.09806458 -0.12770045 0.09553655 -0.0561874
0.043204915 0.09288104 -0.11808658 -0.0014340365 0.088601016 0.15817674 0.0378258 -0.16209847
0.032105688 0.057619203 0.12579958 -0.078547195 -0.11182474 0.022939075 -0.19932473 0.17414646
0.008966871 -0.12731849 0.25511932 0.14545648 0.14506602 -0.19768749 0.10077985 0.15973578
-0.30929932 0.18088625 -0.046973825 0.18411975 0.12855655 -0.0549074 -0.19991432 0.11410563

gru.weight_ih_l1 f4 [192, 64]
00000000: 0704 80be 559e f73a 04c7 82bd 93af c0bc
00000010: cb34 6ebd 12b5 d73d 48bc 60bd 86b1 b5bd
00000020: 0a61 b73d 9d59 6abd 5152 2ebd b8e1 023d
00000030: 8f29 0fbc 6222 fc3d a81f 803c 6eb4 593d
00000040: ee9d 7fbd a01a b03d 80e1 c13d 5aa5 6abc
00000050: 14de 84bd 96cb c73d 4054 29bc 0b39 f03d
00000060: ccba edbd 8acb 36bd 2ff9 083e 56ea bfbc
00000070: dd1e e9bd 178a 6abd d64f 9d3c 9417 a3bd
00000080: 351c 7dba a149 a2bd 4cc1 a73d 7510 793d
00000090: c281 d83c 402b 24bd adf6 c73d b5db ae3d
000000a0: c8af c13c 647d 063d 248a 27be 330f 273d
000000b0: f106 e53d 0e91 84bd a3cd 4fbd 91f4 ac3d
000000c0: a407 8e3d f37c 9bbb 78c2 7abd 056e b83d
000000d0: 828c c83d 383c ddbd a106 363c b149 20bd
000000e0: 7263 5f3d f5f7 c53d b514 783d ca6c d5bd
000000f0: 7536 7ebd 4a1f f4bb 845b a33d 7bf7 e23d
00000100: d690 d73c bc8d bcbd 2c1f f9bb 32f0 28be
00000110: 38f1 373e 2683 ee3d f90a b8bc 7d58 a33d
00000120: bf4a 403d c7e4 13be 6a3f cb3d 617c b13b
00000130: 3562 fa3d 22f3 283d f236 043d 373d b8bd
00000140: bb2c 04be 8b24 40bd c559 9abe a3b4 613c
00000150: e3f3 9fbb df66 25bd 56aa c83d 2c92 093d
00000160: 5601 2fbd afbe 6c3b d6fa 093e b353 a6bd
00000170: 0d91 d1bd 8a8c 893d 7527 a13d 7e4b 053e
00000180: d5b8 493e 830c 02bb 6914 30bd 4a59 433d
00000190: 7faa 4fbb eebc 233d 62bd 7f3c 70e0 733d
000001a0: b3df 3b3d 0d4c 69bd c88f c63d d753 423e
000001b0: 505c 38be bf32 223e 5429 1ebd 39e2 2ebe
000001c0: 2f1a d23d e771 813e ccab 173e 8aac 1c3d
000001d0: ec45 3ebd 20e5 ac3d db8a 28be 8cea a53c
000001e0: dc63 163d 0166 dd3d 719a 183c f6c0 53be
000001f0: 5cc6 44bd 424e 05bc 4b02 fa3d 5be5 3e3e
00000200: f1ef bfbd 7f74 c1bd b9c2 5ebc 0d9c 0bbe
00000210: 5269 b33b 662b babc 3d10 abbd 745f f43d
00000220: b345 833d a7d6 92bd d1ef d6bd 6a85 42bd
00000230: 21f5 dbbd 28a9 bf39 711b a33d faca 93bc
00000240: d4e8 a83d 55d5 aa3c 123a f8bd 4a8b 903d
00000250: f4ba f43b 6767 d4bc e259 bbbc 9541 d3bd
00000260: f617 44bd 9f47 1e3c 8911 1d3c acff 55bd
00000270: 29bc 0e3d fe94 23be 2041 b33d b253 09be
00000280: 2b0d 8c3d 9ea7 0cbe ea23 ee3d 9df6 71bd
00000290: 8733 9dbd 75af 2abb 8abb c8bd ab92 67bc
000002a0: a951 0bbe 9af9 0d3e b138 ecbd 0183 0abe
000002b0: c99c fdbd 71fe 10be 12db f2bd ea94 acbd
000002c0: f0bf aebd efe7 bd3d 5560 86bd 1384 f8bd
000002d0: 4849 cdbd 35af a53c 85f6 a73c bc3f 863d
000002e0: c920 933c 31cd 07be ee18 663c eb76 c7bd
000002f0: 411f 76bd fd29 27bd 98c9 6f3c 368f 76bd
00000300: c767 ff3c cb97 cb3d 8b3a 5b3d 0938 68bd
00000310: ee95 343e f2cb 923e 69e7 b23d da30 fc3d
00000320: 7594 403d 3b21 1d3e 01b8 ca3d 23c4 0dbe
00000330: b17f 04bd b58d 88bd 42c8 ad3d d1d4 373d
00000340: c1b4 993c 6309 9ebd 95d0 c53d 6bd8 d53b
00000350: 6853 583d 5a55 f23d 257c 2abd 473a 97bd
00000360: 56a2 f0bd 6c69 d13c c470 123d a310 11bd
00000370: 941e 413d 5c40 0abe c819 7ebd 24f9 46bd
00000380: 03a6 f33d aaef a7bc 5fa5 15bb 3eb4 3fbd
00000390: 310a 193c 99cf 84be c4e8 8b3d 92b5 efbd
000003a0: 6b19 a9bd 1b02 82bc d8c5 c53d b0e1 ef3d
000003b0: 6b83 ea3d acac 1c3d b9d9 01bd 5349 80bc
000003c0: 92b8 fbbd 9ccc be3d f740 dc3d b4b9 54bd
000003d0: 27f9 e9ba c253 613d 7518 d13c 7a4a f6bd
000003e0: 4a4a 103d 294f 5fbc f09d 033d b75d 92bd
000003f0: 4178 bbbd f856 9dbd ef74 da3b 7f14 de3d
-0.25003073 0.0018891791 -0.063856155 -0.02352122 -0.058155816 0.10532583 -0.05486706 -0.088717505
0.089540556 -0.057214368 -0.04255897 0.031953543 -0.008737936 0.123112455 0.015640095 0.053150587
-0.062406473 0.08598828 0.09466839 -0.014321649 -0.064876705 0.09755628 -0.010335028 0.1172963
-0.11607894 -0.044627704 0.13376306 -0.02342717 -0.1138284 -0.0572606 0.019203108 -0.079634815
-0.0009655387 -0.079242 0.08191165 0.06080671 0.02642906 -0.04008031 0.097638465 0.085379995
0.02364339 0.032834426 -0.1636129 0.04078598 0.111829646 -0.064729795 -0.05073322 0.08445085
0.06935051 -0.0047451197 -0.061220616 0.090053596 0.09792425 -0.108025014 0.011109979 -0.039132778
0.054538198 0.09666435 0.060566623 -0.104211405 -0.062063653 -0.007450019 0.079764396 0.110823594
0.02631418 -0.09206721 -0.007602593 -0.16497877 0.17963111 0.11646108 -0.02246617 0.07975862
0.046946283 -0.1444274 0.09924205 0.0054164384 0.12225763 0.041247495 0.032278962 -0.08996051
-0.12907688 -0.04690985 -0.30146614 0.013775977 -0.0048813685 -0.04038131 0.09798114 0.033586666
-0.042725883 0.0036124398 0.13474593 -0.08121433 -0.10232744 0.06716259 0.07868854 0.13017079
0.19699414 -0.0019843883 -0.042988215 0.047692575 -0.0031687317 0.0399751 0.015609117 0.059540212
0.045867633 -0.056957293 0.09695393 0.18977295 -0.18003964 0.1583967 -0.038613632 -0.17078485
0.102589004 0.25282213 0.14811629 0.038250484 -0.0464534 0.084421396 -0.16459219 0.020253442
0.036716327 0.10810471 0.009314165 -0.20679078 -0.048040733 -0.008136334 0.122074686 0.1864218
-0.09371937 -0.09446048 -0.01359623 -0.13633747 0.0054752016 -0.022725772 -0.083527066 0.11932269
0.064097784 -0.07169848 -0.1049496 -0.047490515 -0.10740114 0.0003655639 0.079642184 -0.018041123
0.082475334 0.020853678 -0.12120451 0.07057817 0.0074685756 -0.025928212 -0.022870008 -0.10315243
-0.047874413 0.0096606305 0.0095867 -0.05224578 0.034847412 -0.15974805 0.08752656 -0.13410833
0.06838449 -0.13735816 0.11627944 -0.05907308 -0.07675844 -0.0026044522 -0.09801395 -0.014134089
-0.1360537 0.13864747 -0.115342505 -0.13526537 -0.1238342 -0.14159562 -0.118581906 -0.084268406
-0.08532703 0.092727534 -0.065613426 -0.12134566 -0.10023743 0.020225147 0.020503292 0.06555125
0.01795997 -0.13261868 0.01404403 -0.09739479 -0.0600884 -0.040811528 0.014635466 -0.06019517
0.031177415 0.099410616 0.053522628 -0.056694064 0.17635319 0.28671223 0.08735544 0.12314005
0.04701658 0.15344708 0.09898377 -0.13844351 -0.03234834 -0.066676535 0.08485462 0.044880692
0.018762948 -0.07716634 0.096589245 0.006526043 0.052813917 0.11832686 -0.0416223 -0.073841624
-0.11749713 0.025562964 0.035752073 -0.035416257 0.047148302 -0.13501114 -0.062036306 -0.048577443
0.118968986 -0.020500023 -0.0022834165 -0.04680275 0.009340809 -0.25939634 0.06831506 -0.11704554
-0.08256801 -0.015870145 0.09656876 0.11712968 0.11450847 0.03825061 -0.031701777 -0.015659964
-0.12291063 0.0931637 0.107545786 -0.051934913 -0.0017850742 0.05501152 0.025524357 -0.12025924
0.035227098 -0.013629713 0.032133043 -0.07146781 -0.09153796 -0.076826036 0.0066667716 0.10843753

gru.weight_hh_l1 f4 [192, 64]
00000000: 88a4 10bd 9aa2 74bd 9ca1 a53d d7fd bebd
00000010: cf3d 1e3d bb06 aa3d c704 02be a87f c1bd
00000020: 5312 b0bb 3ebb 9ebd b89c ba3c 3b91 fabc
00000030: e7fe bd3d f23f 79bd 14a5 713d ce99 1dbd
00000040: eaaf ca3b dc97 fbbd 829b fa3d 0535 7bbc
00000050: 1757 a0bb 3d06 723d eaea 5d3d f55b e23c
00000060: 5b0d af3d c569 a6bd ff1b c03c 4ca2 f53c
00000070: 8169 57bc fb3a 73bd d3e6 76bd 1b25 efbd
00000080: e6ee e63d 44cd 2bbd ed8f 8ebd edb3 dd3d
00000090: f411 c03d 9998 9d3c d224 09bd 65d5 b6bd
000000a0: 97ce e9bd 98bb c839 e8b0 4e3d 403d 283d
000000b0: 3fda 58bd 3671 4bbc f2bb a53d 2483 223d
000000c0: 3760 233d 6cf4 393d 5c46 ce3d 7c0b bbbd
000000d0: eae0 aa3d 3836 6b3d 2bda 44bc 8285 b43d
000000e0: c2d5 84bd c5c6 373d ceef 043d 5890 14bb
000000f0: 4aaf de3b d3ef cc3d 8225 b1bc 0402 4b3d
00000100: bdf4 7d3d 9c44 203e 385c 473b 6f6c a03d
00000110: f75c 5a3d 0d7e 8a3d c3bf 7b3a 6ef6 973c
00000120: bcbc c7bd 2cc1 203d 36a7 11bd c712 42be
00000130: f3c2 d8bd cf65 0b3e 44d8 d43d be7e c7bd
00000140: c9e9 99bd 4132 f8ba 64ac a53d dbcd 913d
00000150: f3e9 1e3d cacd 66bc 3eca 84bd 8103 b43d
00000160: 85c6 1e3b 670c 24ba 1556 cd3d a55f 1a3d
00000170: 72b2 10ba 670d 17bd 795e f6bd e670 bbbc
00000180: 6540 55be 2cc7 09bd f9e0 2d3d 3cb6 e6bd
00000190: b280 3bbc 05fe 273e 8d95 933c 58ef 333d
000001a0: cef2 39be 3979 093d 7329 523c eb9e 913d
000001b0: 30fe f7bd 9272 20be 51be a3bd a68e 2e3d
000001c0: 7b4b 18be 8c49 2b3d 1af4 aebd 6b5e 07be
000001d0: 41aa 73bd 757c 09bd f852 f7bc fd0c ee3d
000001e0: 402a 40bc 5334 18be 5148 10bd d33a 6e3d
000001f0: 6afc ca3c 30a5 44be 149f 933d 0488 443c
00000200: e76f 333d 3e2d 1a3c 19d4 a13d f814 1fbd
00000210: ecc6 643e 4b76 84bb 1fd6 afbd 34da 0f3e
00000220: c09f c1bd c50f 21be 66dd afbd 57e4 28be
00000230: 08f2 df3c 0760 1b3d c570 983b bbcc e53a
00000240: 1257 363d 332e 05bd 4bc4 893e 69a7 3d3b
00000250: d99d a93d de33 09be b2fd 593d c226 933a
00000260: fe34 26bd a41b 53bd e35a 813e 4971 483d
00000270: fafd 6bbe 02d2 0a3e 773a 4f3d 2f84 24be
00000280: 18fe 0a3d ff55 503c cd3d 013e 9255 0dbe
00000290: 2781 073d 1f8c cf3d f94c 373e aa28 113d
000002a0: 771c 023d ce63 523c a66a 3a3d 8a54 53bd
000002b0: 65f0 2f3d 9ec4 933d 5eaf 04be 443f 21bd
000002c0: b217 013e ecde adbd 6e4f 7dbd 214f 5b3d
000002d0: 21c5 6dbe da2f d8bd e87d e7bc d27a 4e3d
000002e0: 5076 50be 862c 823d e78c 8a3d 4b10 32be
000002f0: cf35 d23c 157a 31bb e273 403c 97b9 2ebd
00000300: 764c 65bd ad88 bbbc 1fc9 e3bc 6434 2fbe
00000310: 012a 2e3d 27c1 4fbd e66f 4abd 9440 d43d
00000320: acf1 7d3d 9651 ec3c 1cbe 733d a2e4 e43d
00000330: cce7 cb3d 9cbe 4b3d 1012 a53d 4cbb 793d
00000340: bd92 11bd 57a9 56bc 7a4d 0fbd d515 9cbd
00000350: efcd 5abd 763f 933d f7c2 80bd 729b cebd
00000360: f215 113e 53e2 943d f461 b53d b48f 7fbd
00000370: 76e4 64bd 70f2 d53d 7897 85bc 7e9b c4bc
00000380: 0110 5c3d 058e 96bc 14f4 79bd 8e05 4ebd
00000390: 7197 903d 372d a83d 457c a83d f6c4 1dbd
000003a0: 9e63 e33d 5df0 02be eafd dfbc 2cb2 91bc
000003b0: 37c8 7e3d b9f6 5ebd 988c 873d f916 e13d
000003c0: 89a0 bcbc 6a63 353d ee93 593d 5db3 683c
000003d0: bb04 233d 4717 b73d d04c a43c 9827 dbbc
000003e0: 53e1 08be bb91 9c3d 55bb a7bd f3ae c9bc
000003f0: ea23 323d 5a03 333d 1fb4 ebbc aada 5fbb
-0.03531316 -0.05972538 0.08087465 -0.0932576 0.038633164 0.08302065 -0.12697135 -0.094481766
-0.005373278 -0.07750557 0.022779807 -0.03058683 0.092771344 -0.060852 0.05899532 -0.038476758
0.0061855214 -0.12284824 0.12236692 -0.015332465 -0.0048931944 0.05908798 0.05417911 0.02763174
0.08547469 -0.08125643 0.02345085 0.029984616 -0.013147713 -0.05938242 -0.060278725 -0.11676999
0.11276035 -0.041943803 -0.069610454 0.10825334 0.09378424 0.019237803 -0.03348238 -0.089274205
-0.11416357 0.0003828674 0.05046168 0.041074038 -0.05294251 -0.012417128 0.08092488 0.039675847
0.03988668 0.045399114 0.10072014 -0.0913305 0.0834368 0.057424754 -0.012014906 0.08814527
-0.064860836 0.044867296 0.032455258 -0.0022669043 0.0067957984 0.1000668 -0.02162433 0.04956247
0.06200098 0.15651172 0.0030419957 0.07833182 0.053311314 0.067623235 0.0009603465 0.018550124
-0.09752795 0.039246723 -0.035559855 -0.18952475 -0.105840586 0.13613056 0.10392812 -0.09740971
-0.07515294 -0.0018935875 0.080895215 0.07119342 0.03879733 -0.01408715 -0.06483887 0.08789731
0.0024227214 -0.00062579516 0.100261845 0.03768887 -0.00055197545 -0.036878016 -0.12029738 -0.022880983
-0.20825346 -0.03363721 0.04245088 -0.11265227 -0.011444258 0.16405495 0.018015647 0.043929428
-0.18159029 0.033562873 0.012827265 0.07110389 -0.12109029 -0.15668705 -0.07995284 0.04261651
-0.14872544 0.041818187 -0.085426524 -0.13219611 -0.05948854 -0.033565957 -0.03019093 0.11623571
-0.011728823 -0.1486371 -0.035225216 0.058161568 0.024778564 -0.19203639 0.07208076 0.011995319
0.04380789 0.009410201 0.079017825 -0.038838357 0.22341508 -0.004042422 -0.08585762 0.14048082
-0.09454298 -0.15728672 -0.0858715 -0.16493355 0.02733709 0.037933376 0.004652115 0.0017532328
0.04451663 -0.032514762 0.26907572 0.0028938896 0.0828206 -0.13398692 0.05322046 0.0011226761
-0.04057788 -0.051540032 0.25264654 0.048936162 -0.23046103 0.13556674 0.050592866 -0.16066049
0.03393373 0.012715816 0.12621231 -0.13802174 0.033082154 0.10134148 0.17900456 0.03543917
0.031765427 0.012841178 0.045511864 -0.051594295 0.042953867 0.07215236 -0.12957522 -0.039366975
0.12606695 -0.084897846 -0.06184333 0.05354226 -0.2321973 -0.10556002 -0.028258279 0.0504101
-0.20357633 0.063561484 0.06765156 -0.17389028 0.025660424 -0.0027080823 0.011746379 -0.04265746
-0.055981122 -0.02289232 -0.027805863 -0.17109829 0.042520527 -0.050721314 -0.04942312 0.1036388
0.061998054 0.028847497 0.059507474 0.11176421 0.09956321 0.049742326 0.08060086 0.060969636
-0.03554033 -0.013101897 -0.034985997 -0.07621352 -0.05341905 0.071898386 -0.062871866 -0.100882426
0.14168528 0.072697304 0.08856574 -0.062392905 -0.05588194 0.10446632 -0.016307577 -0.023999926
0.0537262 -0.018378267 -0.061023787 -0.050298266 0.07060135 0.08211749 0.082268275 -0.038517915
0.11102985 -0.12787004 -0.027342755 -0.017785154 0.06220266 -0.05443451 0.06618613 0.1099071
-0.023025768 0.04428426 0.053119592 0.01420292 0.039799433 0.08939987 0.020056158 -0.026752278
-0.13367204 0.076449834 -0.081900276 -0.024619555 0.04349128 0.04370437 -0.028772412 -0.0034157434

gru.bias_ih_l1 f4 [192]
00000000: cfa7 513a ba1f 243e ab58 113d fdcc 123e
00000010: 95d7 a5bd a7ae ac3d 4d05 adbc 243d c0bd
00000020: 05e3 b53b 5d84 ee3d e4b0 633d 8380 2f3e
00000030: 0e38 6dbd a6ff f3bc ad8e f23d 667b c73d
00000040: 83ab c03d 82ed e23d 2495 6bbd 032a 4e3d
00000050: 9c39 12bb 3674 c6bc b10f d53d d622 9cbc
00000060: bb2b e33d 3358 4c3e f432 67bc 74e5 e1bb
00000070: 3faa 8dbb 1e30 dc3c dda1 8f3d a3c9 a83d
00000080: 85cf c13d eb95 27bc a389 42bd 9d91 8c3c
00000090: 061e 1bbd d114 7d3c 6733 7f3d 0e43 153e
000000a0: 4634 fa3d 7970 a53d 559d 90bd 1a0c 003d
000000b0: b091 823d a451 e93d 1647 a63d 696b 8a3d
000000c0: 4c15 7abd 1b3e 56bb 32ab df3c c18d 213e
000000d0: 7a9e d73d 2bbe 843d 14d0 09bd 408e ba3d
000000e0: 4a6d 8f3d 17f7 22bd 9c34 5b3c 5c01 e43c
000000f0: 9664 983c 0005 b63c bf15 663d 1b0b d6bc
00000100: 12fe 6c3b d8fc f3bc 6b5b 96bd d849 29be
00000110: 467d 1e3d 568b 78bd 2729 62bc a5b4 e9bc
00000120: 2943 9a3d e065 b03d ec01 f4bd e79d 04be
00000130: 87fe 9ebd 116b 713d 9409 84bc 639c 46bd
00000140: 5ff8 0cbd fbe1 a53d 5e57 9c3c f070 00be
00000150: f0e2 8dbd 4527 e0bc be51 c4bd 38d6 483d
00000160: 22fe 27be 5201 143d d4ab 163d 07a2 6b3d
00000170: f36b b33d 264f e9bd ba5d 15bd 50f2 00be
00000180: 1974 b6ba b62e e63d 04ee dbbd dab8 ef3b
00000190: b51e 823c 6613 7abd 1411 6ebc fbc2 06be
000001a0: a571 d1bd e5ff 193d 1821 77bd f8ee d3bc
000001b0: 16ce 3e3c 0d50 e0bd 4478 563c dafe 05bd
000001c0: a3cb 793c da70 0dbd 8c7d 59bd 0ee8 c5bc
000001d0: e755 063e 43b8 5abd b7dd 96bc afac 2f3b
000001e0: 4486 fabd 3963 913d 3b29 d6bc a6e8 28be
000001f0: d949 a4bd 6050 c0bc 66f5 33be 2059 99bd
00000200: 3818 863d 7419 7ebd 0c17 8c3d 2313 9dbc
00000210: dc4c 95bc c81e 04bd c93f b1bd 0464 cf3d
00000220: 57b0 0a3d 1dd5 4d3d ddca c9bd 0029 923c
00000230: c587 dbbb cc7a 973d b808 883d 6eec e8bd
00000240: f93f cbbd 6c69 503d b4b3 a4bd c705 8ebd
00000250: a18a 9b3c 7c32 283d d6e8 15be e063 493d
00000260: b2ff 6a3d 6b92 2c3e 70a8 aabd c9d3 643c
00000270: e6a4 6abd 6814 4e3c 2823 99bb 0b87 fe3d
00000280: ed0f 023e 60c5 fa3c c6c5 d6bd cf7b 71bd
00000290: 0105 a0bd 7cce cb3c 2991 89bd c306 233d
000002a0: 4bc5 353d 1952 483d 3f26 90bc 9d65 813d
000002b0: 232d c23d 5475 55bc adce db3d f3ae f8bc
000002c0: 1477 9cbd 61fb 4ebd e59e a5bc b7c6 b8bb
000002d0: fbf2 043d 2446 12bd 7586 e6bd a636 ec3d
000002e0: 256a 25bd 14b1 9dbd d5af ccbb 0a10 61bd
000002f0: bc1b 443d cc94 07be 504d f8bc 02f1 9dbd
0.0007997723 0.16027728 0.03548495 0.1433601 -0.0809776 0.0843175 -0.021120692 -0.09386662
0.0055507445 0.1164634 0.055588618 0.17138867 -0.057914786 -0.029784989 0.118436195 0.09740333
0.09407713 0.11080457 -0.05751528 0.050333034 -0.002231217 -0.024225336 0.104033835 -0.01905958
0.11092325 0.1995552 -0.014111269 -0.006893808 -0.0043232734 0.026878413 0.07013295 0.08241584
0.09463409 -0.010228614 -0.04749454 0.017159278 -0.03787043 0.015446858 0.06230488 0.1457636
0.122170016 0.08078093 -0.07061259 0.03126154 0.06375444 0.11392525 0.08119027 0.06758768
-0.061055467 -0.0032690826 0.027303312 0.15776731 0.10528274 0.06481584 -0.033645704 0.09109163
0.07003267 -0.039786424 0.013379242 0.02783268 0.01860265 0.022219181 0.056173082 -0.026128342
0.003616218 -0.029783651 -0.07341655 -0.16532075 0.03869369 -0.060679756 -0.013803757 -0.02852852
0.07532341 0.08613181 -0.11914429 -0.1295086 -0.07763391 0.058939997 -0.016117848 -0.048488986
-0.034416553 0.08099743 0.019084629 -0.12543082 -0.069280505 -0.027362475 -0.095859036 0.04903242
-0.16405538 0.03613407 0.03678496 0.05752757 0.08760824 -0.113920495 -0.036466338 -0.12592435
-0.0013920098 0.11239378 -0.10738757 0.007315737 0.015883783 -0.061053656 -0.014530439 -0.13160317
-0.10226754 0.037597556 -0.060334295 -0.025870785 0.011645814 -0.109527685 0.013090197 -0.03271375
0.015246305 -0.03453145 -0.053098246 -0.024158504 0.13118707 -0.053398382 -0.018416269 0.0026805808
-0.122326404 0.07099003 -0.026142707 -0.16494998 -0.08021898 -0.023475826 -0.17574081 -0.07487702
0.06547588 -0.062035993 0.06840333 -0.019174164 -0.018225126 -0.032255918 -0.08654744 0.10126498
0.033859577 0.05025207 -0.09853146 0.017841816 -0.0066995346 0.073964685 0.06642288 -0.113732204
-0.09924311 0.050881788 -0.08042088 -0.06934696 0.018987002 0.04106377 -0.14639601 0.049167514
0.057372756 0.16852729 -0.08332908 0.013966509 -0.057286166 0.012578107 -0.0046733804 0.12428101
0.12701388 0.030611694 -0.10486941 -0.058955964 -0.078134544 0.024878733 -0.0671714 0.03980137
0.044377606 0.04890642 -0.017596362 0.06318209 0.094812654 -0.0130284615 0.1073278 -0.03035686
-0.076399 -0.050532702 -0.020217368 -0.005638923 0.032458287 -0.035711423 -0.112561144 0.11533861
-0.04038443 -0.076997906 -0.0062465467 -0.054946937 0.047878012 -0.13240355 -0.030310303 -0.07711984
